{"format": "graph-model", "generatedBy": "2.4.1", "convertedBy": "TensorFlow.js Converter v3.13.0", "signature": {"inputs": {"input_2": {"name": "input_2:0", "dtype": "DT_FLOAT", "tensorShape": {"dim": [{"size": "-1"}, {"size": "43844"}, {"size": "1"}]}}}, "outputs": {"contour": {"name": "Identity:0", "dtype": "DT_FLOAT", "tensorShape": {"dim": [{"size": "-1"}, {"size": "172"}, {"size": "264"}]}}, "Identity_1:0": {"name": "Identity_1:0", "dtype": "DT_FLOAT", "tensorShape": {"dim": [{"size": "-1"}, {"size": "172"}, {"size": "88"}]}}, "Identity_2:0": {"name": "Identity_2:0", "dtype": "DT_FLOAT", "tensorShape": {"dim": [{"size": "-1"}, {"size": "172"}, {"size": "88"}]}}}}, "modelTopology": {"node": [{"name": "StatefulPartitionedCall/model_1/note/reshape_3/strided_slice/stack", "op": "Const", "attr": {"dtype": {"type": "DT_INT32"}, "value": {"tensor": {"dtype": "DT_INT32", "tensorShape": {"dim": [{"size": "1"}]}}}}}, {"name": "StatefulPartitionedCall/model_1/note/reshape_3/strided_slice/stack_1", "op": "Const", "attr": {"dtype": {"type": "DT_INT32"}, "value": {"tensor": {"dtype": "DT_INT32", "tensorShape": {"dim": [{"size": "1"}]}}}}}, {"name": "StatefulPartitionedCall/model_1/note/reshape_3/strided_slice/stack_2", "op": "Const", "attr": {"dtype": {"type": "DT_INT32"}, "value": {"tensor": {"dtype": "DT_INT32", "tensorShape": {"dim": [{"size": "1"}]}}}}}, {"name": "StatefulPartitionedCall/model_1/note/reshape_3/Reshape/shape/1", "op": "Const", "attr": {"dtype": {"type": "DT_INT32"}, "value": {"tensor": {"dtype": "DT_INT32", "tensorShape": {}}}}}, {"name": "StatefulPartitionedCall/model_1/note/reshape_3/Reshape/shape/2", "op": "Const", "attr": {"dtype": {"type": "DT_INT32"}, "value": {"tensor": {"dtype": "DT_INT32", "tensorShape": {}}}}}, {"name": "StatefulPartitionedCall/model_1/harmonic_stacking/strided_slice/stack", "op": "Const", "attr": {"value": {"tensor": {"dtype": "DT_INT32", "tensorShape": {"dim": [{"size": "4"}]}}}, "dtype": {"type": "DT_INT32"}}}, {"name": "StatefulPartitionedCall/model_1/harmonic_stacking/strided_slice/stack_1", "op": "Const", "attr": {"dtype": {"type": "DT_INT32"}, "value": {"tensor": {"dtype": "DT_INT32", "tensorShape": {"dim": [{"size": "4"}]}}}}}, {"name": "StatefulPartitionedCall/model_1/harmonic_stacking/strided_slice/stack_2", "op": "Const", "attr": {"dtype": {"type": "DT_INT32"}, "value": {"tensor": {"dtype": "DT_INT32", "tensorShape": {"dim": [{"size": "4"}]}}}}}, {"name": "StatefulPartitionedCall/model_1/harmonic_stacking/Const", "op": "Const", "attr": {"value": {"tensor": {"dtype": "DT_INT32", "tensorShape": {"dim": [{"size": "4"}, {"size": "2"}]}}}, "dtype": {"type": "DT_INT32"}}}, {"name": "StatefulPartitionedCall/model_1/harmonic_stacking/strided_slice_1/stack", "op": "Const", "attr": {"value": {"tensor": {"dtype": "DT_INT32", "tensorShape": {"dim": [{"size": "4"}]}}}, "dtype": {"type": "DT_INT32"}}}, {"name": "StatefulPartitionedCall/model_1/harmonic_stacking/strided_slice_1/stack_1", "op": "Const", "attr": {"value": {"tensor": {"dtype": "DT_INT32", "tensorShape": {"dim": [{"size": "4"}]}}}, "dtype": {"type": "DT_INT32"}}}, {"name": "StatefulPartitionedCall/model_1/harmonic_stacking/strided_slice_1/stack_2", "op": "Const", "attr": {"value": {"tensor": {"dtype": "DT_INT32", "tensorShape": {"dim": [{"size": "4"}]}}}, "dtype": {"type": "DT_INT32"}}}, {"name": "StatefulPartitionedCall/model_1/harmonic_stacking/Const_1", "op": "Const", "attr": {"dtype": {"type": "DT_INT32"}, "value": {"tensor": {"dtype": "DT_INT32", "tensorShape": {"dim": [{"size": "4"}, {"size": "2"}]}}}}}, {"name": "StatefulPartitionedCall/model_1/harmonic_stacking/strided_slice_2/stack", "op": "Const", "attr": {"value": {"tensor": {"dtype": "DT_INT32", "tensorShape": {"dim": [{"size": "4"}]}}}, "dtype": {"type": "DT_INT32"}}}, {"name": "StatefulPartitionedCall/model_1/harmonic_stacking/strided_slice_2/stack_1", "op": "Const", "attr": {"dtype": {"type": "DT_INT32"}, "value": {"tensor": {"dtype": "DT_INT32", "tensorShape": {"dim": [{"size": "4"}]}}}}}, {"name": "StatefulPartitionedCall/model_1/harmonic_stacking/strided_slice_2/stack_2", "op": "Const", "attr": {"value": {"tensor": {"dtype": "DT_INT32", "tensorShape": {"dim": [{"size": "4"}]}}}, "dtype": {"type": "DT_INT32"}}}, {"name": "StatefulPartitionedCall/model_1/harmonic_stacking/Const_2", "op": "Const", "attr": {"value": {"tensor": {"dtype": "DT_INT32", "tensorShape": {"dim": [{"size": "4"}, {"size": "2"}]}}}, "dtype": {"type": "DT_INT32"}}}, {"name": "StatefulPartitionedCall/model_1/harmonic_stacking/strided_slice_3/stack", "op": "Const", "attr": {"dtype": {"type": "DT_INT32"}, "value": {"tensor": {"dtype": "DT_INT32", "tensorShape": {"dim": [{"size": "4"}]}}}}}, {"name": "StatefulPartitionedCall/model_1/harmonic_stacking/strided_slice_3/stack_1", "op": "Const", "attr": {"dtype": {"type": "DT_INT32"}, "value": {"tensor": {"dtype": "DT_INT32", "tensorShape": {"dim": [{"size": "4"}]}}}}}, {"name": "StatefulPartitionedCall/model_1/harmonic_stacking/strided_slice_3/stack_2", "op": "Const", "attr": {"value": {"tensor": {"dtype": "DT_INT32", "tensorShape": {"dim": [{"size": "4"}]}}}, "dtype": {"type": "DT_INT32"}}}, {"name": "StatefulPartitionedCall/model_1/harmonic_stacking/Const_3", "op": "Const", "attr": {"dtype": {"type": "DT_INT32"}, "value": {"tensor": {"dtype": "DT_INT32", "tensorShape": {"dim": [{"size": "4"}, {"size": "2"}]}}}}}, {"name": "StatefulPartitionedCall/model_1/harmonic_stacking/strided_slice_4/stack", "op": "Const", "attr": {"value": {"tensor": {"dtype": "DT_INT32", "tensorShape": {"dim": [{"size": "4"}]}}}, "dtype": {"type": "DT_INT32"}}}, {"name": "StatefulPartitionedCall/model_1/harmonic_stacking/strided_slice_4/stack_1", "op": "Const", "attr": {"value": {"tensor": {"dtype": "DT_INT32", "tensorShape": {"dim": [{"size": "4"}]}}}, "dtype": {"type": "DT_INT32"}}}, {"name": "StatefulPartitionedCall/model_1/harmonic_stacking/strided_slice_4/stack_2", "op": "Const", "attr": {"value": {"tensor": {"dtype": "DT_INT32", "tensorShape": {"dim": [{"size": "4"}]}}}, "dtype": {"type": "DT_INT32"}}}, {"name": "StatefulPartitionedCall/model_1/harmonic_stacking/Const_4", "op": "Const", "attr": {"dtype": {"type": "DT_INT32"}, "value": {"tensor": {"dtype": "DT_INT32", "tensorShape": {"dim": [{"size": "4"}, {"size": "2"}]}}}}}, {"name": "StatefulPartitionedCall/model_1/harmonic_stacking/strided_slice_5/stack", "op": "Const", "attr": {"value": {"tensor": {"dtype": "DT_INT32", "tensorShape": {"dim": [{"size": "4"}]}}}, "dtype": {"type": "DT_INT32"}}}, {"name": "StatefulPartitionedCall/model_1/harmonic_stacking/strided_slice_5/stack_1", "op": "Const", "attr": {"value": {"tensor": {"dtype": "DT_INT32", "tensorShape": {"dim": [{"size": "4"}]}}}, "dtype": {"type": "DT_INT32"}}}, {"name": "StatefulPartitionedCall/model_1/harmonic_stacking/strided_slice_5/stack_2", "op": "Const", "attr": {"value": {"tensor": {"dtype": "DT_INT32", "tensorShape": {"dim": [{"size": "4"}]}}}, "dtype": {"type": "DT_INT32"}}}, {"name": "StatefulPartitionedCall/model_1/harmonic_stacking/Const_5", "op": "Const", "attr": {"dtype": {"type": "DT_INT32"}, "value": {"tensor": {"dtype": "DT_INT32", "tensorShape": {"dim": [{"size": "4"}, {"size": "2"}]}}}}}, {"name": "StatefulPartitionedCall/model_1/harmonic_stacking/strided_slice_6/stack", "op": "Const", "attr": {"value": {"tensor": {"dtype": "DT_INT32", "tensorShape": {"dim": [{"size": "4"}]}}}, "dtype": {"type": "DT_INT32"}}}, {"name": "StatefulPartitionedCall/model_1/harmonic_stacking/strided_slice_6/stack_1", "op": "Const", "attr": {"dtype": {"type": "DT_INT32"}, "value": {"tensor": {"dtype": "DT_INT32", "tensorShape": {"dim": [{"size": "4"}]}}}}}, {"name": "StatefulPartitionedCall/model_1/harmonic_stacking/strided_slice_6/stack_2", "op": "Const", "attr": {"dtype": {"type": "DT_INT32"}, "value": {"tensor": {"dtype": "DT_INT32", "tensorShape": {"dim": [{"size": "4"}]}}}}}, {"name": "StatefulPartitionedCall/model_1/harmonic_stacking/Const_6", "op": "Const", "attr": {"dtype": {"type": "DT_INT32"}, "value": {"tensor": {"dtype": "DT_INT32", "tensorShape": {"dim": [{"size": "4"}, {"size": "2"}]}}}}}, {"name": "StatefulPartitionedCall/model_1/harmonic_stacking/concat/axis", "op": "Const", "attr": {"dtype": {"type": "DT_INT32"}, "value": {"tensor": {"dtype": "DT_INT32", "tensorShape": {}}}}}, {"name": "StatefulPartitionedCall/model_1/harmonic_stacking/strided_slice_7/stack", "op": "Const", "attr": {"value": {"tensor": {"dtype": "DT_INT32", "tensorShape": {"dim": [{"size": "4"}]}}}, "dtype": {"type": "DT_INT32"}}}, {"name": "StatefulPartitionedCall/model_1/harmonic_stacking/strided_slice_7/stack_1", "op": "Const", "attr": {"dtype": {"type": "DT_INT32"}, "value": {"tensor": {"dtype": "DT_INT32", "tensorShape": {"dim": [{"size": "4"}]}}}}}, {"name": "StatefulPartitionedCall/model_1/harmonic_stacking/strided_slice_7/stack_2", "op": "Const", "attr": {"value": {"tensor": {"dtype": "DT_INT32", "tensorShape": {"dim": [{"size": "4"}]}}}, "dtype": {"type": "DT_INT32"}}}, {"name": "StatefulPartitionedCall/model_1/contours-reduced/Conv2D/ReadVariableOp", "op": "Const", "attr": {"value": {"tensor": {"dtype": "DT_FLOAT", "tensorShape": {"dim": [{"size": "5"}, {"size": "5"}, {"size": "8"}, {"size": "1"}]}}}, "dtype": {"type": "DT_FLOAT"}}}, {"name": "StatefulPartitionedCall/model_1/contours-reduced/BiasAdd/ReadVariableOp", "op": "Const", "attr": {"dtype": {"type": "DT_FLOAT"}, "value": {"tensor": {"dtype": "DT_FLOAT", "tensorShape": {"dim": [{"size": "1"}]}}}}}, {"name": "StatefulPartitionedCall/model_1/contour/reshape_1/strided_slice/stack", "op": "Const", "attr": {"dtype": {"type": "DT_INT32"}, "value": {"tensor": {"dtype": "DT_INT32", "tensorShape": {"dim": [{"size": "1"}]}}}}}, {"name": "StatefulPartitionedCall/model_1/contour/reshape_1/strided_slice/stack_1", "op": "Const", "attr": {"dtype": {"type": "DT_INT32"}, "value": {"tensor": {"dtype": "DT_INT32", "tensorShape": {"dim": [{"size": "1"}]}}}}}, {"name": "StatefulPartitionedCall/model_1/contour/reshape_1/strided_slice/stack_2", "op": "Const", "attr": {"value": {"tensor": {"dtype": "DT_INT32", "tensorShape": {"dim": [{"size": "1"}]}}}, "dtype": {"type": "DT_INT32"}}}, {"name": "StatefulPartitionedCall/model_1/contour/reshape_1/Reshape/shape/1", "op": "Const", "attr": {"dtype": {"type": "DT_INT32"}, "value": {"tensor": {"dtype": "DT_INT32", "tensorShape": {}}}}}, {"name": "StatefulPartitionedCall/model_1/contour/reshape_1/Reshape/shape/2", "op": "Const", "attr": {"value": {"tensor": {"dtype": "DT_INT32", "tensorShape": {}}}, "dtype": {"type": "DT_INT32"}}}, {"name": "StatefulPartitionedCall/model_1/tf.expand_dims_2/ExpandDims/dim", "op": "Const", "attr": {"value": {"tensor": {"dtype": "DT_INT32", "tensorShape": {}}}, "dtype": {"type": "DT_INT32"}}}, {"name": "StatefulPartitionedCall/model_1/conv2d_2/Conv2D/ReadVariableOp", "op": "Const", "attr": {"value": {"tensor": {"dtype": "DT_FLOAT", "tensorShape": {"dim": [{"size": "7"}, {"size": "7"}, {"size": "1"}, {"size": "32"}]}}}, "dtype": {"type": "DT_FLOAT"}}}, {"name": "StatefulPartitionedCall/model_1/conv2d_2/BiasAdd/ReadVariableOp", "op": "Const", "attr": {"value": {"tensor": {"dtype": "DT_FLOAT", "tensorShape": {"dim": [{"size": "32"}]}}}, "dtype": {"type": "DT_FLOAT"}}}, {"name": "StatefulPartitionedCall/model_1/conv2d_3/Conv2D/ReadVariableOp", "op": "Const", "attr": {"value": {"tensor": {"dtype": "DT_FLOAT", "tensorShape": {"dim": [{"size": "7"}, {"size": "3"}, {"size": "32"}, {"size": "1"}]}}}, "dtype": {"type": "DT_FLOAT"}}}, {"name": "StatefulPartitionedCall/model_1/conv2d_3/BiasAdd/ReadVariableOp", "op": "Const", "attr": {"value": {"tensor": {"dtype": "DT_FLOAT", "tensorShape": {"dim": [{"size": "1"}]}}}, "dtype": {"type": "DT_FLOAT"}}}, {"name": "StatefulPartitionedCall/model_1/harmonic-stacking-diff/strided_slice/stack", "op": "Const", "attr": {"dtype": {"type": "DT_INT32"}, "value": {"tensor": {"dtype": "DT_INT32", "tensorShape": {"dim": [{"size": "4"}]}}}}}, {"name": "StatefulPartitionedCall/model_1/harmonic-stacking-diff/strided_slice/stack_1", "op": "Const", "attr": {"dtype": {"type": "DT_INT32"}, "value": {"tensor": {"dtype": "DT_INT32", "tensorShape": {"dim": [{"size": "4"}]}}}}}, {"name": "StatefulPartitionedCall/model_1/harmonic-stacking-diff/strided_slice/stack_2", "op": "Const", "attr": {"value": {"tensor": {"dtype": "DT_INT32", "tensorShape": {"dim": [{"size": "4"}]}}}, "dtype": {"type": "DT_INT32"}}}, {"name": "StatefulPartitionedCall/model_1/harmonic-stacking-diff/Const", "op": "Const", "attr": {"value": {"tensor": {"dtype": "DT_INT32", "tensorShape": {"dim": [{"size": "4"}, {"size": "2"}]}}}, "dtype": {"type": "DT_INT32"}}}, {"name": "StatefulPartitionedCall/model_1/harmonic-stacking-diff/strided_slice_1/stack", "op": "Const", "attr": {"value": {"tensor": {"dtype": "DT_INT32", "tensorShape": {"dim": [{"size": "4"}]}}}, "dtype": {"type": "DT_INT32"}}}, {"name": "StatefulPartitionedCall/model_1/harmonic-stacking-diff/strided_slice_1/stack_1", "op": "Const", "attr": {"dtype": {"type": "DT_INT32"}, "value": {"tensor": {"dtype": "DT_INT32", "tensorShape": {"dim": [{"size": "4"}]}}}}}, {"name": "StatefulPartitionedCall/model_1/harmonic-stacking-diff/strided_slice_1/stack_2", "op": "Const", "attr": {"value": {"tensor": {"dtype": "DT_INT32", "tensorShape": {"dim": [{"size": "4"}]}}}, "dtype": {"type": "DT_INT32"}}}, {"name": "StatefulPartitionedCall/model_1/harmonic-stacking-diff/Const_1", "op": "Const", "attr": {"dtype": {"type": "DT_INT32"}, "value": {"tensor": {"dtype": "DT_INT32", "tensorShape": {"dim": [{"size": "4"}, {"size": "2"}]}}}}}, {"name": "StatefulPartitionedCall/model_1/harmonic-stacking-diff/strided_slice_2/stack", "op": "Const", "attr": {"dtype": {"type": "DT_INT32"}, "value": {"tensor": {"dtype": "DT_INT32", "tensorShape": {"dim": [{"size": "4"}]}}}}}, {"name": "StatefulPartitionedCall/model_1/harmonic-stacking-diff/strided_slice_2/stack_1", "op": "Const", "attr": {"value": {"tensor": {"dtype": "DT_INT32", "tensorShape": {"dim": [{"size": "4"}]}}}, "dtype": {"type": "DT_INT32"}}}, {"name": "StatefulPartitionedCall/model_1/harmonic-stacking-diff/strided_slice_2/stack_2", "op": "Const", "attr": {"dtype": {"type": "DT_INT32"}, "value": {"tensor": {"dtype": "DT_INT32", "tensorShape": {"dim": [{"size": "4"}]}}}}}, {"name": "StatefulPartitionedCall/model_1/harmonic-stacking-diff/Const_2", "op": "Const", "attr": {"dtype": {"type": "DT_INT32"}, "value": {"tensor": {"dtype": "DT_INT32", "tensorShape": {"dim": [{"size": "4"}, {"size": "2"}]}}}}}, {"name": "StatefulPartitionedCall/model_1/harmonic-stacking-diff/strided_slice_3/stack", "op": "Const", "attr": {"value": {"tensor": {"dtype": "DT_INT32", "tensorShape": {"dim": [{"size": "4"}]}}}, "dtype": {"type": "DT_INT32"}}}, {"name": "StatefulPartitionedCall/model_1/harmonic-stacking-diff/strided_slice_3/stack_1", "op": "Const", "attr": {"dtype": {"type": "DT_INT32"}, "value": {"tensor": {"dtype": "DT_INT32", "tensorShape": {"dim": [{"size": "4"}]}}}}}, {"name": "StatefulPartitionedCall/model_1/harmonic-stacking-diff/strided_slice_3/stack_2", "op": "Const", "attr": {"value": {"tensor": {"dtype": "DT_INT32", "tensorShape": {"dim": [{"size": "4"}]}}}, "dtype": {"type": "DT_INT32"}}}, {"name": "StatefulPartitionedCall/model_1/harmonic-stacking-diff/Const_3", "op": "Const", "attr": {"dtype": {"type": "DT_INT32"}, "value": {"tensor": {"dtype": "DT_INT32", "tensorShape": {"dim": [{"size": "4"}, {"size": "2"}]}}}}}, {"name": "StatefulPartitionedCall/model_1/harmonic-stacking-diff/strided_slice_4/stack", "op": "Const", "attr": {"value": {"tensor": {"dtype": "DT_INT32", "tensorShape": {"dim": [{"size": "4"}]}}}, "dtype": {"type": "DT_INT32"}}}, {"name": "StatefulPartitionedCall/model_1/harmonic-stacking-diff/strided_slice_4/stack_1", "op": "Const", "attr": {"value": {"tensor": {"dtype": "DT_INT32", "tensorShape": {"dim": [{"size": "4"}]}}}, "dtype": {"type": "DT_INT32"}}}, {"name": "StatefulPartitionedCall/model_1/harmonic-stacking-diff/strided_slice_4/stack_2", "op": "Const", "attr": {"value": {"tensor": {"dtype": "DT_INT32", "tensorShape": {"dim": [{"size": "4"}]}}}, "dtype": {"type": "DT_INT32"}}}, {"name": "StatefulPartitionedCall/model_1/harmonic-stacking-diff/Const_4", "op": "Const", "attr": {"value": {"tensor": {"dtype": "DT_INT32", "tensorShape": {"dim": [{"size": "4"}, {"size": "2"}]}}}, "dtype": {"type": "DT_INT32"}}}, {"name": "StatefulPartitionedCall/model_1/harmonic-stacking-diff/strided_slice_5/stack", "op": "Const", "attr": {"dtype": {"type": "DT_INT32"}, "value": {"tensor": {"dtype": "DT_INT32", "tensorShape": {"dim": [{"size": "4"}]}}}}}, {"name": "StatefulPartitionedCall/model_1/harmonic-stacking-diff/strided_slice_5/stack_1", "op": "Const", "attr": {"dtype": {"type": "DT_INT32"}, "value": {"tensor": {"dtype": "DT_INT32", "tensorShape": {"dim": [{"size": "4"}]}}}}}, {"name": "StatefulPartitionedCall/model_1/harmonic-stacking-diff/strided_slice_5/stack_2", "op": "Const", "attr": {"dtype": {"type": "DT_INT32"}, "value": {"tensor": {"dtype": "DT_INT32", "tensorShape": {"dim": [{"size": "4"}]}}}}}, {"name": "StatefulPartitionedCall/model_1/harmonic-stacking-diff/Const_5", "op": "Const", "attr": {"value": {"tensor": {"dtype": "DT_INT32", "tensorShape": {"dim": [{"size": "4"}, {"size": "2"}]}}}, "dtype": {"type": "DT_INT32"}}}, {"name": "StatefulPartitionedCall/model_1/normalized_log_1/add/y", "op": "Const", "attr": {"value": {"tensor": {"dtype": "DT_FLOAT", "tensorShape": {}}}, "dtype": {"type": "DT_FLOAT"}}}, {"name": "StatefulPartitionedCall/model_1/normalized_log_1/truediv", "op": "Const", "attr": {"dtype": {"type": "DT_FLOAT"}, "value": {"tensor": {"dtype": "DT_FLOAT", "tensorShape": {}}}}}, {"name": "StatefulPartitionedCall/model_1/normalized_log_1/Min/reduction_indices", "op": "Const", "attr": {"value": {"tensor": {"dtype": "DT_INT32", "tensorShape": {"dim": [{"size": "2"}]}}}, "dtype": {"type": "DT_INT32"}}}, {"name": "StatefulPartitionedCall/model_1/normalized_log_1/strided_slice/stack", "op": "Const", "attr": {"value": {"tensor": {"dtype": "DT_INT32", "tensorShape": {"dim": [{"size": "1"}]}}}, "dtype": {"type": "DT_INT32"}}}, {"name": "StatefulPartitionedCall/model_1/normalized_log_1/strided_slice/stack_1", "op": "Const", "attr": {"value": {"tensor": {"dtype": "DT_INT32", "tensorShape": {"dim": [{"size": "1"}]}}}, "dtype": {"type": "DT_INT32"}}}, {"name": "StatefulPartitionedCall/model_1/normalized_log_1/strided_slice/stack_2", "op": "Const", "attr": {"dtype": {"type": "DT_INT32"}, "value": {"tensor": {"dtype": "DT_INT32", "tensorShape": {"dim": [{"size": "1"}]}}}}}, {"name": "StatefulPartitionedCall/model_1/normalized_log_1/Reshape/shape/1", "op": "Const", "attr": {"dtype": {"type": "DT_INT32"}, "value": {"tensor": {"dtype": "DT_INT32", "tensorShape": {}}}}}, {"name": "StatefulPartitionedCall/model_1/normalized_log_1/Reshape/shape/2", "op": "Const", "attr": {"dtype": {"type": "DT_INT32"}, "value": {"tensor": {"dtype": "DT_INT32", "tensorShape": {}}}}}, {"name": "StatefulPartitionedCall/model_1/normalized_log_1/Max/reduction_indices", "op": "Const", "attr": {"value": {"tensor": {"dtype": "DT_INT32", "tensorShape": {"dim": [{"size": "2"}]}}}, "dtype": {"type": "DT_INT32"}}}, {"name": "StatefulPartitionedCall/model_1/cq_t2010v2_1/transpose_64/perm", "op": "Const", "attr": {"dtype": {"type": "DT_INT32"}, "value": {"tensor": {"dtype": "DT_INT32", "tensorShape": {"dim": [{"size": "3"}]}}}}}, {"name": "StatefulPartitionedCall/model_1/cq_t2010v2_1/conv1d_24/ExpandDims/dim", "op": "Const", "attr": {"value": {"tensor": {"dtype": "DT_INT32", "tensorShape": {}}}, "dtype": {"type": "DT_INT32"}}}, {"name": "StatefulPartitionedCall/model_1/cq_t2010v2_1/conv1d_24/ExpandDims_1", "op": "Const", "attr": {"dtype": {"type": "DT_FLOAT"}, "value": {"tensor": {"dtype": "DT_FLOAT", "tensorShape": {"dim": [{"size": "1"}, {"size": "256"}, {"size": "1"}, {"size": "36"}]}}}}}, {"name": "StatefulPartitionedCall/model_1/cq_t2010v2_1/transpose_66/perm", "op": "Const", "attr": {"dtype": {"type": "DT_INT32"}, "value": {"tensor": {"dtype": "DT_INT32", "tensorShape": {"dim": [{"size": "3"}]}}}}}, {"name": "StatefulPartitionedCall/model_1/cq_t2010v2_1/Pad_7/paddings", "op": "Const", "attr": {"value": {"tensor": {"dtype": "DT_INT32", "tensorShape": {"dim": [{"size": "3"}, {"size": "2"}]}}}, "dtype": {"type": "DT_INT32"}}}, {"name": "StatefulPartitionedCall/model_1/cq_t2010v2_1/transpose_62/perm", "op": "Const", "attr": {"value": {"tensor": {"dtype": "DT_INT32", "tensorShape": {"dim": [{"size": "3"}]}}}, "dtype": {"type": "DT_INT32"}}}, {"name": "StatefulPartitionedCall/model_1/cq_t2010v2_1/conv1d_23/ExpandDims/dim", "op": "Const", "attr": {"dtype": {"type": "DT_INT32"}, "value": {"tensor": {"dtype": "DT_INT32", "tensorShape": {}}}}}, {"name": "StatefulPartitionedCall/model_1/cq_t2010v2_1/conv1d_23/ExpandDims_1", "op": "Const", "attr": {"value": {"tensor": {"dtype": "DT_FLOAT", "tensorShape": {"dim": [{"size": "1"}, {"size": "256"}, {"size": "1"}, {"size": "1"}]}}}, "dtype": {"type": "DT_FLOAT"}}}, {"name": "StatefulPartitionedCall/model_1/cq_t2010v2_1/transpose_63/perm", "op": "Const", "attr": {"value": {"tensor": {"dtype": "DT_INT32", "tensorShape": {"dim": [{"size": "3"}]}}}, "dtype": {"type": "DT_INT32"}}}, {"name": "StatefulPartitionedCall/model_1/cq_t2010v2_1/reflection_pad1d/MirrorPad_8/paddings", "op": "Const", "attr": {"value": {"tensor": {"dtype": "DT_INT32", "tensorShape": {"dim": [{"size": "3"}, {"size": "2"}]}}}, "dtype": {"type": "DT_INT32"}}}, {"name": "StatefulPartitionedCall/model_1/cq_t2010v2_1/transpose_67/perm", "op": "Const", "attr": {"value": {"tensor": {"dtype": "DT_INT32", "tensorShape": {"dim": [{"size": "3"}]}}}, "dtype": {"type": "DT_INT32"}}}, {"name": "StatefulPartitionedCall/model_1/cq_t2010v2_1/conv1d_25/ExpandDims/dim", "op": "Const", "attr": {"dtype": {"type": "DT_INT32"}, "value": {"tensor": {"dtype": "DT_INT32", "tensorShape": {}}}}}, {"name": "StatefulPartitionedCall/model_1/cq_t2010v2_1/conv1d_25/ExpandDims_1", "op": "Const", "attr": {"value": {"tensor": {"dtype": "DT_FLOAT", "tensorShape": {"dim": [{"size": "1"}, {"size": "256"}, {"size": "1"}, {"size": "36"}]}}}, "dtype": {"type": "DT_FLOAT"}}}, {"name": "StatefulPartitionedCall/model_1/cq_t2010v2_1/transpose_69/perm", "op": "Const", "attr": {"value": {"tensor": {"dtype": "DT_INT32", "tensorShape": {"dim": [{"size": "3"}]}}}, "dtype": {"type": "DT_INT32"}}}, {"name": "StatefulPartitionedCall/model_1/cq_t2010v2_1/transpose_56/perm", "op": "Const", "attr": {"dtype": {"type": "DT_INT32"}, "value": {"tensor": {"dtype": "DT_INT32", "tensorShape": {"dim": [{"size": "3"}]}}}}}, {"name": "StatefulPartitionedCall/model_1/cq_t2010v2_1/conv1d_21/ExpandDims/dim", "op": "Const", "attr": {"dtype": {"type": "DT_INT32"}, "value": {"tensor": {"dtype": "DT_INT32", "tensorShape": {}}}}}, {"name": "StatefulPartitionedCall/model_1/cq_t2010v2_1/conv1d_21/ExpandDims_1", "op": "Const", "attr": {"dtype": {"type": "DT_FLOAT"}, "value": {"tensor": {"dtype": "DT_FLOAT", "tensorShape": {"dim": [{"size": "1"}, {"size": "256"}, {"size": "1"}, {"size": "36"}]}}}}}, {"name": "StatefulPartitionedCall/model_1/cq_t2010v2_1/transpose_58/perm", "op": "Const", "attr": {"value": {"tensor": {"dtype": "DT_INT32", "tensorShape": {"dim": [{"size": "3"}]}}}, "dtype": {"type": "DT_INT32"}}}, {"name": "StatefulPartitionedCall/model_1/cq_t2010v2_1/Pad_6/paddings", "op": "Const", "attr": {"value": {"tensor": {"dtype": "DT_INT32", "tensorShape": {"dim": [{"size": "3"}, {"size": "2"}]}}}, "dtype": {"type": "DT_INT32"}}}, {"name": "StatefulPartitionedCall/model_1/cq_t2010v2_1/transpose_54/perm", "op": "Const", "attr": {"value": {"tensor": {"dtype": "DT_INT32", "tensorShape": {"dim": [{"size": "3"}]}}}, "dtype": {"type": "DT_INT32"}}}, {"name": "StatefulPartitionedCall/model_1/cq_t2010v2_1/conv1d_20/ExpandDims/dim", "op": "Const", "attr": {"dtype": {"type": "DT_INT32"}, "value": {"tensor": {"dtype": "DT_INT32", "tensorShape": {}}}}}, {"name": "StatefulPartitionedCall/model_1/cq_t2010v2_1/conv1d_20/ExpandDims_1", "op": "Const", "attr": {"dtype": {"type": "DT_FLOAT"}, "value": {"tensor": {"dtype": "DT_FLOAT", "tensorShape": {"dim": [{"size": "1"}, {"size": "256"}, {"size": "1"}, {"size": "1"}]}}}}}, {"name": "StatefulPartitionedCall/model_1/cq_t2010v2_1/transpose_55/perm", "op": "Const", "attr": {"value": {"tensor": {"dtype": "DT_INT32", "tensorShape": {"dim": [{"size": "3"}]}}}, "dtype": {"type": "DT_INT32"}}}, {"name": "StatefulPartitionedCall/model_1/cq_t2010v2_1/reflection_pad1d/MirrorPad_7/paddings", "op": "Const", "attr": {"value": {"tensor": {"dtype": "DT_INT32", "tensorShape": {"dim": [{"size": "3"}, {"size": "2"}]}}}, "dtype": {"type": "DT_INT32"}}}, {"name": "StatefulPartitionedCall/model_1/cq_t2010v2_1/transpose_59/perm", "op": "Const", "attr": {"dtype": {"type": "DT_INT32"}, "value": {"tensor": {"dtype": "DT_INT32", "tensorShape": {"dim": [{"size": "3"}]}}}}}, {"name": "StatefulPartitionedCall/model_1/cq_t2010v2_1/conv1d_22/ExpandDims/dim", "op": "Const", "attr": {"dtype": {"type": "DT_INT32"}, "value": {"tensor": {"dtype": "DT_INT32", "tensorShape": {}}}}}, {"name": "StatefulPartitionedCall/model_1/cq_t2010v2_1/conv1d_22/ExpandDims_1", "op": "Const", "attr": {"value": {"tensor": {"dtype": "DT_FLOAT", "tensorShape": {"dim": [{"size": "1"}, {"size": "256"}, {"size": "1"}, {"size": "36"}]}}}, "dtype": {"type": "DT_FLOAT"}}}, {"name": "StatefulPartitionedCall/model_1/cq_t2010v2_1/transpose_61/perm", "op": "Const", "attr": {"value": {"tensor": {"dtype": "DT_INT32", "tensorShape": {"dim": [{"size": "3"}]}}}, "dtype": {"type": "DT_INT32"}}}, {"name": "StatefulPartitionedCall/model_1/cq_t2010v2_1/transpose_48/perm", "op": "Const", "attr": {"value": {"tensor": {"dtype": "DT_INT32", "tensorShape": {"dim": [{"size": "3"}]}}}, "dtype": {"type": "DT_INT32"}}}, {"name": "StatefulPartitionedCall/model_1/cq_t2010v2_1/conv1d_18/ExpandDims/dim", "op": "Const", "attr": {"dtype": {"type": "DT_INT32"}, "value": {"tensor": {"dtype": "DT_INT32", "tensorShape": {}}}}}, {"name": "StatefulPartitionedCall/model_1/cq_t2010v2_1/conv1d_18/ExpandDims_1", "op": "Const", "attr": {"dtype": {"type": "DT_FLOAT"}, "value": {"tensor": {"dtype": "DT_FLOAT", "tensorShape": {"dim": [{"size": "1"}, {"size": "256"}, {"size": "1"}, {"size": "36"}]}}}}}, {"name": "StatefulPartitionedCall/model_1/cq_t2010v2_1/transpose_50/perm", "op": "Const", "attr": {"dtype": {"type": "DT_INT32"}, "value": {"tensor": {"dtype": "DT_INT32", "tensorShape": {"dim": [{"size": "3"}]}}}}}, {"name": "StatefulPartitionedCall/model_1/cq_t2010v2_1/Pad_5/paddings", "op": "Const", "attr": {"dtype": {"type": "DT_INT32"}, "value": {"tensor": {"dtype": "DT_INT32", "tensorShape": {"dim": [{"size": "3"}, {"size": "2"}]}}}}}, {"name": "StatefulPartitionedCall/model_1/cq_t2010v2_1/transpose_46/perm", "op": "Const", "attr": {"value": {"tensor": {"dtype": "DT_INT32", "tensorShape": {"dim": [{"size": "3"}]}}}, "dtype": {"type": "DT_INT32"}}}, {"name": "StatefulPartitionedCall/model_1/cq_t2010v2_1/conv1d_17/ExpandDims/dim", "op": "Const", "attr": {"dtype": {"type": "DT_INT32"}, "value": {"tensor": {"dtype": "DT_INT32", "tensorShape": {}}}}}, {"name": "StatefulPartitionedCall/model_1/cq_t2010v2_1/conv1d_17/ExpandDims_1", "op": "Const", "attr": {"value": {"tensor": {"dtype": "DT_FLOAT", "tensorShape": {"dim": [{"size": "1"}, {"size": "256"}, {"size": "1"}, {"size": "1"}]}}}, "dtype": {"type": "DT_FLOAT"}}}, {"name": "StatefulPartitionedCall/model_1/cq_t2010v2_1/transpose_47/perm", "op": "Const", "attr": {"value": {"tensor": {"dtype": "DT_INT32", "tensorShape": {"dim": [{"size": "3"}]}}}, "dtype": {"type": "DT_INT32"}}}, {"name": "StatefulPartitionedCall/model_1/cq_t2010v2_1/reflection_pad1d/MirrorPad_6/paddings", "op": "Const", "attr": {"dtype": {"type": "DT_INT32"}, "value": {"tensor": {"dtype": "DT_INT32", "tensorShape": {"dim": [{"size": "3"}, {"size": "2"}]}}}}}, {"name": "StatefulPartitionedCall/model_1/cq_t2010v2_1/transpose_51/perm", "op": "Const", "attr": {"dtype": {"type": "DT_INT32"}, "value": {"tensor": {"dtype": "DT_INT32", "tensorShape": {"dim": [{"size": "3"}]}}}}}, {"name": "StatefulPartitionedCall/model_1/cq_t2010v2_1/conv1d_19/ExpandDims/dim", "op": "Const", "attr": {"dtype": {"type": "DT_INT32"}, "value": {"tensor": {"dtype": "DT_INT32", "tensorShape": {}}}}}, {"name": "StatefulPartitionedCall/model_1/cq_t2010v2_1/conv1d_19/ExpandDims_1", "op": "Const", "attr": {"value": {"tensor": {"dtype": "DT_FLOAT", "tensorShape": {"dim": [{"size": "1"}, {"size": "256"}, {"size": "1"}, {"size": "36"}]}}}, "dtype": {"type": "DT_FLOAT"}}}, {"name": "StatefulPartitionedCall/model_1/cq_t2010v2_1/transpose_53/perm", "op": "Const", "attr": {"dtype": {"type": "DT_INT32"}, "value": {"tensor": {"dtype": "DT_INT32", "tensorShape": {"dim": [{"size": "3"}]}}}}}, {"name": "StatefulPartitionedCall/model_1/cq_t2010v2_1/transpose_40/perm", "op": "Const", "attr": {"dtype": {"type": "DT_INT32"}, "value": {"tensor": {"dtype": "DT_INT32", "tensorShape": {"dim": [{"size": "3"}]}}}}}, {"name": "StatefulPartitionedCall/model_1/cq_t2010v2_1/conv1d_15/ExpandDims/dim", "op": "Const", "attr": {"value": {"tensor": {"dtype": "DT_INT32", "tensorShape": {}}}, "dtype": {"type": "DT_INT32"}}}, {"name": "StatefulPartitionedCall/model_1/cq_t2010v2_1/conv1d_15/ExpandDims_1", "op": "Const", "attr": {"dtype": {"type": "DT_FLOAT"}, "value": {"tensor": {"dtype": "DT_FLOAT", "tensorShape": {"dim": [{"size": "1"}, {"size": "256"}, {"size": "1"}, {"size": "36"}]}}}}}, {"name": "StatefulPartitionedCall/model_1/cq_t2010v2_1/transpose_42/perm", "op": "Const", "attr": {"value": {"tensor": {"dtype": "DT_INT32", "tensorShape": {"dim": [{"size": "3"}]}}}, "dtype": {"type": "DT_INT32"}}}, {"name": "StatefulPartitionedCall/model_1/cq_t2010v2_1/Pad_4/paddings", "op": "Const", "attr": {"dtype": {"type": "DT_INT32"}, "value": {"tensor": {"dtype": "DT_INT32", "tensorShape": {"dim": [{"size": "3"}, {"size": "2"}]}}}}}, {"name": "StatefulPartitionedCall/model_1/cq_t2010v2_1/transpose_38/perm", "op": "Const", "attr": {"dtype": {"type": "DT_INT32"}, "value": {"tensor": {"dtype": "DT_INT32", "tensorShape": {"dim": [{"size": "3"}]}}}}}, {"name": "StatefulPartitionedCall/model_1/cq_t2010v2_1/conv1d_14/ExpandDims/dim", "op": "Const", "attr": {"dtype": {"type": "DT_INT32"}, "value": {"tensor": {"dtype": "DT_INT32", "tensorShape": {}}}}}, {"name": "StatefulPartitionedCall/model_1/cq_t2010v2_1/conv1d_14/ExpandDims_1", "op": "Const", "attr": {"value": {"tensor": {"dtype": "DT_FLOAT", "tensorShape": {"dim": [{"size": "1"}, {"size": "256"}, {"size": "1"}, {"size": "1"}]}}}, "dtype": {"type": "DT_FLOAT"}}}, {"name": "StatefulPartitionedCall/model_1/cq_t2010v2_1/transpose_39/perm", "op": "Const", "attr": {"value": {"tensor": {"dtype": "DT_INT32", "tensorShape": {"dim": [{"size": "3"}]}}}, "dtype": {"type": "DT_INT32"}}}, {"name": "StatefulPartitionedCall/model_1/cq_t2010v2_1/reflection_pad1d/MirrorPad_5/paddings", "op": "Const", "attr": {"value": {"tensor": {"dtype": "DT_INT32", "tensorShape": {"dim": [{"size": "3"}, {"size": "2"}]}}}, "dtype": {"type": "DT_INT32"}}}, {"name": "StatefulPartitionedCall/model_1/cq_t2010v2_1/transpose_43/perm", "op": "Const", "attr": {"value": {"tensor": {"dtype": "DT_INT32", "tensorShape": {"dim": [{"size": "3"}]}}}, "dtype": {"type": "DT_INT32"}}}, {"name": "StatefulPartitionedCall/model_1/cq_t2010v2_1/conv1d_16/ExpandDims/dim", "op": "Const", "attr": {"value": {"tensor": {"dtype": "DT_INT32", "tensorShape": {}}}, "dtype": {"type": "DT_INT32"}}}, {"name": "StatefulPartitionedCall/model_1/cq_t2010v2_1/conv1d_16/ExpandDims_1", "op": "Const", "attr": {"dtype": {"type": "DT_FLOAT"}, "value": {"tensor": {"dtype": "DT_FLOAT", "tensorShape": {"dim": [{"size": "1"}, {"size": "256"}, {"size": "1"}, {"size": "36"}]}}}}}, {"name": "StatefulPartitionedCall/model_1/cq_t2010v2_1/transpose_45/perm", "op": "Const", "attr": {"dtype": {"type": "DT_INT32"}, "value": {"tensor": {"dtype": "DT_INT32", "tensorShape": {"dim": [{"size": "3"}]}}}}}, {"name": "StatefulPartitionedCall/model_1/cq_t2010v2_1/transpose_32/perm", "op": "Const", "attr": {"dtype": {"type": "DT_INT32"}, "value": {"tensor": {"dtype": "DT_INT32", "tensorShape": {"dim": [{"size": "3"}]}}}}}, {"name": "StatefulPartitionedCall/model_1/cq_t2010v2_1/conv1d_12/ExpandDims/dim", "op": "Const", "attr": {"value": {"tensor": {"dtype": "DT_INT32", "tensorShape": {}}}, "dtype": {"type": "DT_INT32"}}}, {"name": "StatefulPartitionedCall/model_1/cq_t2010v2_1/conv1d_12/ExpandDims_1", "op": "Const", "attr": {"value": {"tensor": {"dtype": "DT_FLOAT", "tensorShape": {"dim": [{"size": "1"}, {"size": "256"}, {"size": "1"}, {"size": "36"}]}}}, "dtype": {"type": "DT_FLOAT"}}}, {"name": "StatefulPartitionedCall/model_1/cq_t2010v2_1/transpose_34/perm", "op": "Const", "attr": {"value": {"tensor": {"dtype": "DT_INT32", "tensorShape": {"dim": [{"size": "3"}]}}}, "dtype": {"type": "DT_INT32"}}}, {"name": "StatefulPartitionedCall/model_1/cq_t2010v2_1/Pad_3/paddings", "op": "Const", "attr": {"value": {"tensor": {"dtype": "DT_INT32", "tensorShape": {"dim": [{"size": "3"}, {"size": "2"}]}}}, "dtype": {"type": "DT_INT32"}}}, {"name": "StatefulPartitionedCall/model_1/cq_t2010v2_1/transpose_30/perm", "op": "Const", "attr": {"dtype": {"type": "DT_INT32"}, "value": {"tensor": {"dtype": "DT_INT32", "tensorShape": {"dim": [{"size": "3"}]}}}}}, {"name": "StatefulPartitionedCall/model_1/cq_t2010v2_1/conv1d_11/ExpandDims/dim", "op": "Const", "attr": {"value": {"tensor": {"dtype": "DT_INT32", "tensorShape": {}}}, "dtype": {"type": "DT_INT32"}}}, {"name": "StatefulPartitionedCall/model_1/cq_t2010v2_1/conv1d_11/ExpandDims_1", "op": "Const", "attr": {"dtype": {"type": "DT_FLOAT"}, "value": {"tensor": {"dtype": "DT_FLOAT", "tensorShape": {"dim": [{"size": "1"}, {"size": "256"}, {"size": "1"}, {"size": "1"}]}}}}}, {"name": "StatefulPartitionedCall/model_1/cq_t2010v2_1/transpose_31/perm", "op": "Const", "attr": {"value": {"tensor": {"dtype": "DT_INT32", "tensorShape": {"dim": [{"size": "3"}]}}}, "dtype": {"type": "DT_INT32"}}}, {"name": "StatefulPartitionedCall/model_1/cq_t2010v2_1/reflection_pad1d/MirrorPad_4/paddings", "op": "Const", "attr": {"dtype": {"type": "DT_INT32"}, "value": {"tensor": {"dtype": "DT_INT32", "tensorShape": {"dim": [{"size": "3"}, {"size": "2"}]}}}}}, {"name": "StatefulPartitionedCall/model_1/cq_t2010v2_1/transpose_35/perm", "op": "Const", "attr": {"dtype": {"type": "DT_INT32"}, "value": {"tensor": {"dtype": "DT_INT32", "tensorShape": {"dim": [{"size": "3"}]}}}}}, {"name": "StatefulPartitionedCall/model_1/cq_t2010v2_1/conv1d_13/ExpandDims/dim", "op": "Const", "attr": {"dtype": {"type": "DT_INT32"}, "value": {"tensor": {"dtype": "DT_INT32", "tensorShape": {}}}}}, {"name": "StatefulPartitionedCall/model_1/cq_t2010v2_1/conv1d_13/ExpandDims_1", "op": "Const", "attr": {"value": {"tensor": {"dtype": "DT_FLOAT", "tensorShape": {"dim": [{"size": "1"}, {"size": "256"}, {"size": "1"}, {"size": "36"}]}}}, "dtype": {"type": "DT_FLOAT"}}}, {"name": "StatefulPartitionedCall/model_1/cq_t2010v2_1/transpose_37/perm", "op": "Const", "attr": {"value": {"tensor": {"dtype": "DT_INT32", "tensorShape": {"dim": [{"size": "3"}]}}}, "dtype": {"type": "DT_INT32"}}}, {"name": "StatefulPartitionedCall/model_1/cq_t2010v2_1/transpose_24/perm", "op": "Const", "attr": {"dtype": {"type": "DT_INT32"}, "value": {"tensor": {"dtype": "DT_INT32", "tensorShape": {"dim": [{"size": "3"}]}}}}}, {"name": "StatefulPartitionedCall/model_1/cq_t2010v2_1/conv1d_9/ExpandDims/dim", "op": "Const", "attr": {"value": {"tensor": {"dtype": "DT_INT32", "tensorShape": {}}}, "dtype": {"type": "DT_INT32"}}}, {"name": "StatefulPartitionedCall/model_1/cq_t2010v2_1/conv1d_9/ExpandDims_1", "op": "Const", "attr": {"value": {"tensor": {"dtype": "DT_FLOAT", "tensorShape": {"dim": [{"size": "1"}, {"size": "256"}, {"size": "1"}, {"size": "36"}]}}}, "dtype": {"type": "DT_FLOAT"}}}, {"name": "StatefulPartitionedCall/model_1/cq_t2010v2_1/transpose_26/perm", "op": "Const", "attr": {"dtype": {"type": "DT_INT32"}, "value": {"tensor": {"dtype": "DT_INT32", "tensorShape": {"dim": [{"size": "3"}]}}}}}, {"name": "StatefulPartitionedCall/model_1/cq_t2010v2_1/Pad_2/paddings", "op": "Const", "attr": {"value": {"tensor": {"dtype": "DT_INT32", "tensorShape": {"dim": [{"size": "3"}, {"size": "2"}]}}}, "dtype": {"type": "DT_INT32"}}}, {"name": "StatefulPartitionedCall/model_1/cq_t2010v2_1/transpose_22/perm", "op": "Const", "attr": {"value": {"tensor": {"dtype": "DT_INT32", "tensorShape": {"dim": [{"size": "3"}]}}}, "dtype": {"type": "DT_INT32"}}}, {"name": "StatefulPartitionedCall/model_1/cq_t2010v2_1/conv1d_8/ExpandDims/dim", "op": "Const", "attr": {"value": {"tensor": {"dtype": "DT_INT32", "tensorShape": {}}}, "dtype": {"type": "DT_INT32"}}}, {"name": "StatefulPartitionedCall/model_1/cq_t2010v2_1/conv1d_8/ExpandDims_1", "op": "Const", "attr": {"value": {"tensor": {"dtype": "DT_FLOAT", "tensorShape": {"dim": [{"size": "1"}, {"size": "256"}, {"size": "1"}, {"size": "1"}]}}}, "dtype": {"type": "DT_FLOAT"}}}, {"name": "StatefulPartitionedCall/model_1/cq_t2010v2_1/transpose_23/perm", "op": "Const", "attr": {"dtype": {"type": "DT_INT32"}, "value": {"tensor": {"dtype": "DT_INT32", "tensorShape": {"dim": [{"size": "3"}]}}}}}, {"name": "StatefulPartitionedCall/model_1/cq_t2010v2_1/reflection_pad1d/MirrorPad_3/paddings", "op": "Const", "attr": {"dtype": {"type": "DT_INT32"}, "value": {"tensor": {"dtype": "DT_INT32", "tensorShape": {"dim": [{"size": "3"}, {"size": "2"}]}}}}}, {"name": "StatefulPartitionedCall/model_1/cq_t2010v2_1/transpose_27/perm", "op": "Const", "attr": {"dtype": {"type": "DT_INT32"}, "value": {"tensor": {"dtype": "DT_INT32", "tensorShape": {"dim": [{"size": "3"}]}}}}}, {"name": "StatefulPartitionedCall/model_1/cq_t2010v2_1/conv1d_10/ExpandDims/dim", "op": "Const", "attr": {"dtype": {"type": "DT_INT32"}, "value": {"tensor": {"dtype": "DT_INT32", "tensorShape": {}}}}}, {"name": "StatefulPartitionedCall/model_1/cq_t2010v2_1/conv1d_10/ExpandDims_1", "op": "Const", "attr": {"dtype": {"type": "DT_FLOAT"}, "value": {"tensor": {"dtype": "DT_FLOAT", "tensorShape": {"dim": [{"size": "1"}, {"size": "256"}, {"size": "1"}, {"size": "36"}]}}}}}, {"name": "StatefulPartitionedCall/model_1/cq_t2010v2_1/transpose_29/perm", "op": "Const", "attr": {"value": {"tensor": {"dtype": "DT_INT32", "tensorShape": {"dim": [{"size": "3"}]}}}, "dtype": {"type": "DT_INT32"}}}, {"name": "StatefulPartitionedCall/model_1/cq_t2010v2_1/transpose_16/perm", "op": "Const", "attr": {"dtype": {"type": "DT_INT32"}, "value": {"tensor": {"dtype": "DT_INT32", "tensorShape": {"dim": [{"size": "3"}]}}}}}, {"name": "StatefulPartitionedCall/model_1/cq_t2010v2_1/conv1d_6/ExpandDims/dim", "op": "Const", "attr": {"value": {"tensor": {"dtype": "DT_INT32", "tensorShape": {}}}, "dtype": {"type": "DT_INT32"}}}, {"name": "StatefulPartitionedCall/model_1/cq_t2010v2_1/conv1d_6/ExpandDims_1", "op": "Const", "attr": {"dtype": {"type": "DT_FLOAT"}, "value": {"tensor": {"dtype": "DT_FLOAT", "tensorShape": {"dim": [{"size": "1"}, {"size": "256"}, {"size": "1"}, {"size": "36"}]}}}}}, {"name": "StatefulPartitionedCall/model_1/cq_t2010v2_1/transpose_18/perm", "op": "Const", "attr": {"dtype": {"type": "DT_INT32"}, "value": {"tensor": {"dtype": "DT_INT32", "tensorShape": {"dim": [{"size": "3"}]}}}}}, {"name": "StatefulPartitionedCall/model_1/cq_t2010v2_1/Pad_1/paddings", "op": "Const", "attr": {"dtype": {"type": "DT_INT32"}, "value": {"tensor": {"dtype": "DT_INT32", "tensorShape": {"dim": [{"size": "3"}, {"size": "2"}]}}}}}, {"name": "StatefulPartitionedCall/model_1/cq_t2010v2_1/transpose_14/perm", "op": "Const", "attr": {"dtype": {"type": "DT_INT32"}, "value": {"tensor": {"dtype": "DT_INT32", "tensorShape": {"dim": [{"size": "3"}]}}}}}, {"name": "StatefulPartitionedCall/model_1/cq_t2010v2_1/conv1d_5/ExpandDims/dim", "op": "Const", "attr": {"value": {"tensor": {"dtype": "DT_INT32", "tensorShape": {}}}, "dtype": {"type": "DT_INT32"}}}, {"name": "StatefulPartitionedCall/model_1/cq_t2010v2_1/conv1d_5/ExpandDims_1", "op": "Const", "attr": {"value": {"tensor": {"dtype": "DT_FLOAT", "tensorShape": {"dim": [{"size": "1"}, {"size": "256"}, {"size": "1"}, {"size": "1"}]}}}, "dtype": {"type": "DT_FLOAT"}}}, {"name": "StatefulPartitionedCall/model_1/cq_t2010v2_1/transpose_15/perm", "op": "Const", "attr": {"dtype": {"type": "DT_INT32"}, "value": {"tensor": {"dtype": "DT_INT32", "tensorShape": {"dim": [{"size": "3"}]}}}}}, {"name": "StatefulPartitionedCall/model_1/cq_t2010v2_1/reflection_pad1d/MirrorPad_2/paddings", "op": "Const", "attr": {"dtype": {"type": "DT_INT32"}, "value": {"tensor": {"dtype": "DT_INT32", "tensorShape": {"dim": [{"size": "3"}, {"size": "2"}]}}}}}, {"name": "StatefulPartitionedCall/model_1/cq_t2010v2_1/transpose_19/perm", "op": "Const", "attr": {"value": {"tensor": {"dtype": "DT_INT32", "tensorShape": {"dim": [{"size": "3"}]}}}, "dtype": {"type": "DT_INT32"}}}, {"name": "StatefulPartitionedCall/model_1/cq_t2010v2_1/conv1d_7/ExpandDims/dim", "op": "Const", "attr": {"dtype": {"type": "DT_INT32"}, "value": {"tensor": {"dtype": "DT_INT32", "tensorShape": {}}}}}, {"name": "StatefulPartitionedCall/model_1/cq_t2010v2_1/conv1d_7/ExpandDims_1", "op": "Const", "attr": {"dtype": {"type": "DT_FLOAT"}, "value": {"tensor": {"dtype": "DT_FLOAT", "tensorShape": {"dim": [{"size": "1"}, {"size": "256"}, {"size": "1"}, {"size": "36"}]}}}}}, {"name": "StatefulPartitionedCall/model_1/cq_t2010v2_1/transpose_21/perm", "op": "Const", "attr": {"dtype": {"type": "DT_INT32"}, "value": {"tensor": {"dtype": "DT_INT32", "tensorShape": {"dim": [{"size": "3"}]}}}}}, {"name": "StatefulPartitionedCall/model_1/cq_t2010v2_1/transpose_8/perm", "op": "Const", "attr": {"value": {"tensor": {"dtype": "DT_INT32", "tensorShape": {"dim": [{"size": "3"}]}}}, "dtype": {"type": "DT_INT32"}}}, {"name": "StatefulPartitionedCall/model_1/cq_t2010v2_1/conv1d_3/ExpandDims/dim", "op": "Const", "attr": {"dtype": {"type": "DT_INT32"}, "value": {"tensor": {"dtype": "DT_INT32", "tensorShape": {}}}}}, {"name": "StatefulPartitionedCall/model_1/cq_t2010v2_1/conv1d_3/ExpandDims_1", "op": "Const", "attr": {"value": {"tensor": {"dtype": "DT_FLOAT", "tensorShape": {"dim": [{"size": "1"}, {"size": "256"}, {"size": "1"}, {"size": "36"}]}}}, "dtype": {"type": "DT_FLOAT"}}}, {"name": "StatefulPartitionedCall/model_1/cq_t2010v2_1/transpose_10/perm", "op": "Const", "attr": {"dtype": {"type": "DT_INT32"}, "value": {"tensor": {"dtype": "DT_INT32", "tensorShape": {"dim": [{"size": "3"}]}}}}}, {"name": "StatefulPartitionedCall/model_1/cq_t2010v2_1/Pad/paddings", "op": "Const", "attr": {"value": {"tensor": {"dtype": "DT_INT32", "tensorShape": {"dim": [{"size": "3"}, {"size": "2"}]}}}, "dtype": {"type": "DT_INT32"}}}, {"name": "StatefulPartitionedCall/model_1/cq_t2010v2_1/transpose_6/perm", "op": "Const", "attr": {"dtype": {"type": "DT_INT32"}, "value": {"tensor": {"dtype": "DT_INT32", "tensorShape": {"dim": [{"size": "3"}]}}}}}, {"name": "StatefulPartitionedCall/model_1/cq_t2010v2_1/conv1d_2/ExpandDims/dim", "op": "Const", "attr": {"value": {"tensor": {"dtype": "DT_INT32", "tensorShape": {}}}, "dtype": {"type": "DT_INT32"}}}, {"name": "StatefulPartitionedCall/model_1/cq_t2010v2_1/conv1d_2/ExpandDims_1", "op": "Const", "attr": {"value": {"tensor": {"dtype": "DT_FLOAT", "tensorShape": {"dim": [{"size": "1"}, {"size": "256"}, {"size": "1"}, {"size": "1"}]}}}, "dtype": {"type": "DT_FLOAT"}}}, {"name": "StatefulPartitionedCall/model_1/cq_t2010v2_1/transpose_7/perm", "op": "Const", "attr": {"dtype": {"type": "DT_INT32"}, "value": {"tensor": {"dtype": "DT_INT32", "tensorShape": {"dim": [{"size": "3"}]}}}}}, {"name": "StatefulPartitionedCall/model_1/cq_t2010v2_1/reflection_pad1d/MirrorPad_1/paddings", "op": "Const", "attr": {"value": {"tensor": {"dtype": "DT_INT32", "tensorShape": {"dim": [{"size": "3"}, {"size": "2"}]}}}, "dtype": {"type": "DT_INT32"}}}, {"name": "StatefulPartitionedCall/model_1/cq_t2010v2_1/transpose_11/perm", "op": "Const", "attr": {"dtype": {"type": "DT_INT32"}, "value": {"tensor": {"dtype": "DT_INT32", "tensorShape": {"dim": [{"size": "3"}]}}}}}, {"name": "StatefulPartitionedCall/model_1/cq_t2010v2_1/conv1d_4/ExpandDims/dim", "op": "Const", "attr": {"dtype": {"type": "DT_INT32"}, "value": {"tensor": {"dtype": "DT_INT32", "tensorShape": {}}}}}, {"name": "StatefulPartitionedCall/model_1/cq_t2010v2_1/conv1d_4/ExpandDims_1", "op": "Const", "attr": {"dtype": {"type": "DT_FLOAT"}, "value": {"tensor": {"dtype": "DT_FLOAT", "tensorShape": {"dim": [{"size": "1"}, {"size": "256"}, {"size": "1"}, {"size": "36"}]}}}}}, {"name": "StatefulPartitionedCall/model_1/cq_t2010v2_1/transpose_13/perm", "op": "Const", "attr": {"dtype": {"type": "DT_INT32"}, "value": {"tensor": {"dtype": "DT_INT32", "tensorShape": {"dim": [{"size": "3"}]}}}}}, {"name": "StatefulPartitionedCall/model_1/cq_t2010v2_1/transpose/perm", "op": "Const", "attr": {"dtype": {"type": "DT_INT32"}, "value": {"tensor": {"dtype": "DT_INT32", "tensorShape": {"dim": [{"size": "3"}]}}}}}, {"name": "StatefulPartitionedCall/model_1/cq_t2010v2_1/conv1d/ExpandDims/dim", "op": "Const", "attr": {"dtype": {"type": "DT_INT32"}, "value": {"tensor": {"dtype": "DT_INT32", "tensorShape": {}}}}}, {"name": "StatefulPartitionedCall/model_1/cq_t2010v2_1/conv1d/ExpandDims_1", "op": "Const", "attr": {"value": {"tensor": {"dtype": "DT_FLOAT", "tensorShape": {"dim": [{"size": "1"}, {"size": "256"}, {"size": "1"}, {"size": "36"}]}}}, "dtype": {"type": "DT_FLOAT"}}}, {"name": "StatefulPartitionedCall/model_1/cq_t2010v2_1/transpose_2/perm", "op": "Const", "attr": {"dtype": {"type": "DT_INT32"}, "value": {"tensor": {"dtype": "DT_INT32", "tensorShape": {"dim": [{"size": "3"}]}}}}}, {"name": "StatefulPartitionedCall/model_1/flatten_audio_ch_1/reshape/strided_slice/stack", "op": "Const", "attr": {"dtype": {"type": "DT_INT32"}, "value": {"tensor": {"dtype": "DT_INT32", "tensorShape": {"dim": [{"size": "1"}]}}}}}, {"name": "StatefulPartitionedCall/model_1/flatten_audio_ch_1/reshape/strided_slice/stack_1", "op": "Const", "attr": {"dtype": {"type": "DT_INT32"}, "value": {"tensor": {"dtype": "DT_INT32", "tensorShape": {"dim": [{"size": "1"}]}}}}}, {"name": "StatefulPartitionedCall/model_1/flatten_audio_ch_1/reshape/strided_slice/stack_2", "op": "Const", "attr": {"dtype": {"type": "DT_INT32"}, "value": {"tensor": {"dtype": "DT_INT32", "tensorShape": {"dim": [{"size": "1"}]}}}}}, {"name": "StatefulPartitionedCall/model_1/flatten_audio_ch_1/reshape/Reshape/shape/1", "op": "Const", "attr": {"dtype": {"type": "DT_INT32"}, "value": {"tensor": {"dtype": "DT_INT32", "tensorShape": {}}}}}, {"name": "StatefulPartitionedCall/model_1/cq_t2010v2_1/strided_slice/stack", "op": "Const", "attr": {"dtype": {"type": "DT_INT32"}, "value": {"tensor": {"dtype": "DT_INT32", "tensorShape": {"dim": [{"size": "3"}]}}}}}, {"name": "StatefulPartitionedCall/model_1/cq_t2010v2_1/strided_slice/stack_1", "op": "Const", "attr": {"dtype": {"type": "DT_INT32"}, "value": {"tensor": {"dtype": "DT_INT32", "tensorShape": {"dim": [{"size": "3"}]}}}}}, {"name": "StatefulPartitionedCall/model_1/cq_t2010v2_1/strided_slice/stack_2", "op": "Const", "attr": {"dtype": {"type": "DT_INT32"}, "value": {"tensor": {"dtype": "DT_INT32", "tensorShape": {"dim": [{"size": "3"}]}}}}}, {"name": "StatefulPartitionedCall/model_1/cq_t2010v2_1/reflection_pad1d/MirrorPad/paddings", "op": "Const", "attr": {"dtype": {"type": "DT_INT32"}, "value": {"tensor": {"dtype": "DT_INT32", "tensorShape": {"dim": [{"size": "3"}, {"size": "2"}]}}}}}, {"name": "StatefulPartitionedCall/model_1/cq_t2010v2_1/transpose_3/perm", "op": "Const", "attr": {"value": {"tensor": {"dtype": "DT_INT32", "tensorShape": {"dim": [{"size": "3"}]}}}, "dtype": {"type": "DT_INT32"}}}, {"name": "StatefulPartitionedCall/model_1/cq_t2010v2_1/conv1d_1/ExpandDims/dim", "op": "Const", "attr": {"value": {"tensor": {"dtype": "DT_INT32", "tensorShape": {}}}, "dtype": {"type": "DT_INT32"}}}, {"name": "StatefulPartitionedCall/model_1/cq_t2010v2_1/conv1d_1/ExpandDims_1", "op": "Const", "attr": {"value": {"tensor": {"dtype": "DT_FLOAT", "tensorShape": {"dim": [{"size": "1"}, {"size": "256"}, {"size": "1"}, {"size": "36"}]}}}, "dtype": {"type": "DT_FLOAT"}}}, {"name": "StatefulPartitionedCall/model_1/cq_t2010v2_1/transpose_5/perm", "op": "Const", "attr": {"value": {"tensor": {"dtype": "DT_INT32", "tensorShape": {"dim": [{"size": "3"}]}}}, "dtype": {"type": "DT_INT32"}}}, {"name": "StatefulPartitionedCall/model_1/cq_t2010v2_1/concat_7/axis", "op": "Const", "attr": {"dtype": {"type": "DT_INT32"}, "value": {"tensor": {"dtype": "DT_INT32", "tensorShape": {}}}}}, {"name": "StatefulPartitionedCall/model_1/cq_t2010v2_1/strided_slice_9/stack", "op": "Const", "attr": {"value": {"tensor": {"dtype": "DT_INT32", "tensorShape": {"dim": [{"size": "3"}]}}}, "dtype": {"type": "DT_INT32"}}}, {"name": "StatefulPartitionedCall/model_1/cq_t2010v2_1/strided_slice_9/stack_1", "op": "Const", "attr": {"value": {"tensor": {"dtype": "DT_INT32", "tensorShape": {"dim": [{"size": "3"}]}}}, "dtype": {"type": "DT_INT32"}}}, {"name": "StatefulPartitionedCall/model_1/cq_t2010v2_1/strided_slice_9/stack_2", "op": "Const", "attr": {"value": {"tensor": {"dtype": "DT_INT32", "tensorShape": {"dim": [{"size": "3"}]}}}, "dtype": {"type": "DT_INT32"}}}, {"name": "StatefulPartitionedCall/model_1/cq_t2010v2_1/Sqrt", "op": "Const", "attr": {"value": {"tensor": {"dtype": "DT_FLOAT", "tensorShape": {"dim": [{"size": "309"}, {"size": "1"}, {"size": "1"}]}}}, "dtype": {"type": "DT_FLOAT"}}}, {"name": "StatefulPartitionedCall/model_1/cq_t2010v2_1/Sum/reduction_indices", "op": "Const", "attr": {"value": {"tensor": {"dtype": "DT_INT32", "tensorShape": {}}}, "dtype": {"type": "DT_INT32"}}}, {"name": "StatefulPartitionedCall/model_1/cq_t2010v2_1/transpose_70/perm", "op": "Const", "attr": {"dtype": {"type": "DT_INT32"}, "value": {"tensor": {"dtype": "DT_INT32", "tensorShape": {"dim": [{"size": "3"}]}}}}}, {"name": "StatefulPartitionedCall/model_1/normalized_log_1/strided_slice_1/stack", "op": "Const", "attr": {"value": {"tensor": {"dtype": "DT_INT32", "tensorShape": {"dim": [{"size": "1"}]}}}, "dtype": {"type": "DT_INT32"}}}, {"name": "StatefulPartitionedCall/model_1/normalized_log_1/strided_slice_1/stack_1", "op": "Const", "attr": {"value": {"tensor": {"dtype": "DT_INT32", "tensorShape": {"dim": [{"size": "1"}]}}}, "dtype": {"type": "DT_INT32"}}}, {"name": "StatefulPartitionedCall/model_1/normalized_log_1/strided_slice_1/stack_2", "op": "Const", "attr": {"value": {"tensor": {"dtype": "DT_INT32", "tensorShape": {"dim": [{"size": "1"}]}}}, "dtype": {"type": "DT_INT32"}}}, {"name": "StatefulPartitionedCall/model_1/normalized_log_1/Reshape_1/shape/1", "op": "Const", "attr": {"value": {"tensor": {"dtype": "DT_INT32", "tensorShape": {}}}, "dtype": {"type": "DT_INT32"}}}, {"name": "StatefulPartitionedCall/model_1/normalized_log_1/Reshape_1/shape/2", "op": "Const", "attr": {"value": {"tensor": {"dtype": "DT_INT32", "tensorShape": {}}}, "dtype": {"type": "DT_INT32"}}}, {"name": "StatefulPartitionedCall/model_1/tf.expand_dims_1/ExpandDims/dim", "op": "Const", "attr": {"dtype": {"type": "DT_INT32"}, "value": {"tensor": {"dtype": "DT_INT32", "tensorShape": {}}}}}, {"name": "StatefulPartitionedCall/model_1/harmonic-stacking-diff/strided_slice_6/stack", "op": "Const", "attr": {"value": {"tensor": {"dtype": "DT_INT32", "tensorShape": {"dim": [{"size": "4"}]}}}, "dtype": {"type": "DT_INT32"}}}, {"name": "StatefulPartitionedCall/model_1/harmonic-stacking-diff/strided_slice_6/stack_1", "op": "Const", "attr": {"value": {"tensor": {"dtype": "DT_INT32", "tensorShape": {"dim": [{"size": "4"}]}}}, "dtype": {"type": "DT_INT32"}}}, {"name": "StatefulPartitionedCall/model_1/harmonic-stacking-diff/strided_slice_6/stack_2", "op": "Const", "attr": {"dtype": {"type": "DT_INT32"}, "value": {"tensor": {"dtype": "DT_INT32", "tensorShape": {"dim": [{"size": "4"}]}}}}}, {"name": "StatefulPartitionedCall/model_1/harmonic-stacking-diff/Const_6", "op": "Const", "attr": {"value": {"tensor": {"dtype": "DT_INT32", "tensorShape": {"dim": [{"size": "4"}, {"size": "2"}]}}}, "dtype": {"type": "DT_INT32"}}}, {"name": "StatefulPartitionedCall/model_1/harmonic-stacking-diff/concat/axis", "op": "Const", "attr": {"dtype": {"type": "DT_INT32"}, "value": {"tensor": {"dtype": "DT_INT32", "tensorShape": {}}}}}, {"name": "StatefulPartitionedCall/model_1/harmonic-stacking-diff/strided_slice_7/stack", "op": "Const", "attr": {"dtype": {"type": "DT_INT32"}, "value": {"tensor": {"dtype": "DT_INT32", "tensorShape": {"dim": [{"size": "4"}]}}}}}, {"name": "StatefulPartitionedCall/model_1/harmonic-stacking-diff/strided_slice_7/stack_1", "op": "Const", "attr": {"dtype": {"type": "DT_INT32"}, "value": {"tensor": {"dtype": "DT_INT32", "tensorShape": {"dim": [{"size": "4"}]}}}}}, {"name": "StatefulPartitionedCall/model_1/harmonic-stacking-diff/strided_slice_7/stack_2", "op": "Const", "attr": {"value": {"tensor": {"dtype": "DT_INT32", "tensorShape": {"dim": [{"size": "4"}]}}}, "dtype": {"type": "DT_INT32"}}}, {"name": "StatefulPartitionedCall/model_1/concat/concat/axis", "op": "Const", "attr": {"dtype": {"type": "DT_INT32"}, "value": {"tensor": {"dtype": "DT_INT32", "tensorShape": {}}}}}, {"name": "StatefulPartitionedCall/model_1/conv2d_5/Conv2D/ReadVariableOp", "op": "Const", "attr": {"dtype": {"type": "DT_FLOAT"}, "value": {"tensor": {"dtype": "DT_FLOAT", "tensorShape": {"dim": [{"size": "3"}, {"size": "3"}, {"size": "33"}, {"size": "1"}]}}}}}, {"name": "StatefulPartitionedCall/model_1/conv2d_5/BiasAdd/ReadVariableOp", "op": "Const", "attr": {"value": {"tensor": {"dtype": "DT_FLOAT", "tensorShape": {"dim": [{"size": "1"}]}}}, "dtype": {"type": "DT_FLOAT"}}}, {"name": "StatefulPartitionedCall/model_1/onset/reshape_2/strided_slice/stack", "op": "Const", "attr": {"value": {"tensor": {"dtype": "DT_INT32", "tensorShape": {"dim": [{"size": "1"}]}}}, "dtype": {"type": "DT_INT32"}}}, {"name": "StatefulPartitionedCall/model_1/onset/reshape_2/strided_slice/stack_1", "op": "Const", "attr": {"value": {"tensor": {"dtype": "DT_INT32", "tensorShape": {"dim": [{"size": "1"}]}}}, "dtype": {"type": "DT_INT32"}}}, {"name": "StatefulPartitionedCall/model_1/onset/reshape_2/strided_slice/stack_2", "op": "Const", "attr": {"dtype": {"type": "DT_INT32"}, "value": {"tensor": {"dtype": "DT_INT32", "tensorShape": {"dim": [{"size": "1"}]}}}}}, {"name": "StatefulPartitionedCall/model_1/onset/reshape_2/Reshape/shape/1", "op": "Const", "attr": {"value": {"tensor": {"dtype": "DT_INT32", "tensorShape": {}}}, "dtype": {"type": "DT_INT32"}}}, {"name": "StatefulPartitionedCall/model_1/onset/reshape_2/Reshape/shape/2", "op": "Const", "attr": {"dtype": {"type": "DT_INT32"}, "value": {"tensor": {"dtype": "DT_INT32", "tensorShape": {}}}}}, {"name": "input_2", "op": "Placeholder", "attr": {"shape": {"shape": {"dim": [{"size": "-1"}, {"size": "43844"}, {"size": "1"}]}}, "dtype": {"type": "DT_FLOAT"}}}, {"name": "StatefulPartitionedCall/model_1/conv2d_1/Conv2D_weights", "op": "Const", "attr": {"value": {"tensor": {"dtype": "DT_FLOAT", "tensorShape": {"dim": [{"size": "3"}, {"size": "39"}, {"size": "8"}, {"size": "8"}]}}}, "dtype": {"type": "DT_FLOAT"}}}, {"name": "StatefulPartitionedCall/model_1/conv2d_1/Conv2D_bn_offset", "op": "Const", "attr": {"dtype": {"type": "DT_FLOAT"}, "value": {"tensor": {"dtype": "DT_FLOAT", "tensorShape": {"dim": [{"size": "8"}]}}}}}, {"name": "StatefulPartitionedCall/model_1/batch_normalization/FusedBatchNormV3/Scaled", "op": "Const", "attr": {"dtype": {"type": "DT_FLOAT"}, "value": {"tensor": {"dtype": "DT_FLOAT", "tensorShape": {"dim": [{"size": "1"}]}}}}}, {"name": "StatefulPartitionedCall/model_1/conv2d_4/Conv2D_weights", "op": "Const", "attr": {"value": {"tensor": {"dtype": "DT_FLOAT", "tensorShape": {"dim": [{"size": "5"}, {"size": "5"}, {"size": "8"}, {"size": "32"}]}}}, "dtype": {"type": "DT_FLOAT"}}}, {"name": "StatefulPartitionedCall/model_1/conv2d_4/Conv2D_bn_offset", "op": "Const", "attr": {"dtype": {"type": "DT_FLOAT"}, "value": {"tensor": {"dtype": "DT_FLOAT", "tensorShape": {"dim": [{"size": "32"}]}}}}}, {"name": "StatefulPartitionedCall/model_1/batch_normalization/FusedBatchNormV3/Offset", "op": "Const", "attr": {"dtype": {"type": "DT_FLOAT"}, "value": {"tensor": {"dtype": "DT_FLOAT", "tensorShape": {"dim": [{"size": "1"}]}}}}}, {"name": "StatefulPartitionedCall/model_1/flatten_audio_ch_1/reshape/Shape", "op": "Shape", "input": ["input_2"], "attr": {"T": {"type": "DT_FLOAT"}, "out_type": {"type": "DT_INT32"}}}, {"name": "StatefulPartitionedCall/model_1/flatten_audio_ch_1/reshape/strided_slice", "op": "StridedSlice", "input": ["StatefulPartitionedCall/model_1/flatten_audio_ch_1/reshape/Shape", "StatefulPartitionedCall/model_1/flatten_audio_ch_1/reshape/strided_slice/stack", "StatefulPartitionedCall/model_1/flatten_audio_ch_1/reshape/strided_slice/stack_1", "StatefulPartitionedCall/model_1/flatten_audio_ch_1/reshape/strided_slice/stack_2"], "attr": {"new_axis_mask": {"i": "0"}, "shrink_axis_mask": {"i": "1"}, "begin_mask": {"i": "0"}, "ellipsis_mask": {"i": "0"}, "Index": {"type": "DT_INT32"}, "end_mask": {"i": "0"}, "T": {"type": "DT_INT32"}}}, {"name": "StatefulPartitionedCall/model_1/flatten_audio_ch_1/reshape/Reshape/shape", "op": "Pack", "input": ["StatefulPartitionedCall/model_1/flatten_audio_ch_1/reshape/strided_slice", "StatefulPartitionedCall/model_1/flatten_audio_ch_1/reshape/Reshape/shape/1"], "attr": {"N": {"i": "2"}, "T": {"type": "DT_INT32"}, "axis": {"i": "0"}}}, {"name": "StatefulPartitionedCall/model_1/flatten_audio_ch_1/reshape/Reshape", "op": "Reshape", "input": ["input_2", "StatefulPartitionedCall/model_1/flatten_audio_ch_1/reshape/Reshape/shape"], "attr": {"T": {"type": "DT_FLOAT"}, "Tshape": {"type": "DT_INT32"}}}, {"name": "StatefulPartitionedCall/model_1/cq_t2010v2_1/strided_slice", "op": "StridedSlice", "input": ["StatefulPartitionedCall/model_1/flatten_audio_ch_1/reshape/Reshape", "StatefulPartitionedCall/model_1/cq_t2010v2_1/strided_slice/stack", "StatefulPartitionedCall/model_1/cq_t2010v2_1/strided_slice/stack_1", "StatefulPartitionedCall/model_1/cq_t2010v2_1/strided_slice/stack_2"], "attr": {"Index": {"type": "DT_INT32"}, "shrink_axis_mask": {"i": "0"}, "T": {"type": "DT_FLOAT"}, "new_axis_mask": {"i": "2"}, "begin_mask": {"i": "5"}, "end_mask": {"i": "5"}, "ellipsis_mask": {"i": "0"}}}, {"name": "StatefulPartitionedCall/model_1/cq_t2010v2_1/Pad", "op": "Pad", "input": ["StatefulPartitionedCall/model_1/cq_t2010v2_1/strided_slice", "StatefulPartitionedCall/model_1/cq_t2010v2_1/Pad/paddings"], "attr": {"Tpaddings": {"type": "DT_INT32"}, "T": {"type": "DT_FLOAT"}}}, {"name": "StatefulPartitionedCall/model_1/cq_t2010v2_1/reflection_pad1d/MirrorPad", "op": "MirrorPad", "input": ["StatefulPartitionedCall/model_1/cq_t2010v2_1/strided_slice", "StatefulPartitionedCall/model_1/cq_t2010v2_1/reflection_pad1d/MirrorPad/paddings"], "attr": {"Tpaddings": {"type": "DT_INT32"}, "mode": {"s": "UkVGTEVDVA=="}, "T": {"type": "DT_FLOAT"}}}, {"name": "StatefulPartitionedCall/model_1/cq_t2010v2_1/transpose_6", "op": "Transpose", "input": ["StatefulPartitionedCall/model_1/cq_t2010v2_1/Pad", "StatefulPartitionedCall/model_1/cq_t2010v2_1/transpose_6/perm"], "attr": {"T": {"type": "DT_FLOAT"}, "Tperm": {"type": "DT_INT32"}}}, {"name": "StatefulPartitionedCall/model_1/cq_t2010v2_1/transpose", "op": "Transpose", "input": ["StatefulPartitionedCall/model_1/cq_t2010v2_1/reflection_pad1d/MirrorPad", "StatefulPartitionedCall/model_1/cq_t2010v2_1/transpose/perm"], "attr": {"Tperm": {"type": "DT_INT32"}, "T": {"type": "DT_FLOAT"}}}, {"name": "StatefulPartitionedCall/model_1/cq_t2010v2_1/transpose_3", "op": "Transpose", "input": ["StatefulPartitionedCall/model_1/cq_t2010v2_1/reflection_pad1d/MirrorPad", "StatefulPartitionedCall/model_1/cq_t2010v2_1/transpose_3/perm"], "attr": {"Tperm": {"type": "DT_INT32"}, "T": {"type": "DT_FLOAT"}}}, {"name": "StatefulPartitionedCall/model_1/cq_t2010v2_1/conv1d_2/ExpandDims", "op": "ExpandDims", "input": ["StatefulPartitionedCall/model_1/cq_t2010v2_1/transpose_6", "StatefulPartitionedCall/model_1/cq_t2010v2_1/conv1d_2/ExpandDims/dim"], "attr": {"Tdim": {"type": "DT_INT32"}, "T": {"type": "DT_FLOAT"}}}, {"name": "StatefulPartitionedCall/model_1/cq_t2010v2_1/conv1d/ExpandDims", "op": "ExpandDims", "input": ["StatefulPartitionedCall/model_1/cq_t2010v2_1/transpose", "StatefulPartitionedCall/model_1/cq_t2010v2_1/conv1d/ExpandDims/dim"], "attr": {"Tdim": {"type": "DT_INT32"}, "T": {"type": "DT_FLOAT"}}}, {"name": "StatefulPartitionedCall/model_1/cq_t2010v2_1/conv1d_1/ExpandDims", "op": "ExpandDims", "input": ["StatefulPartitionedCall/model_1/cq_t2010v2_1/transpose_3", "StatefulPartitionedCall/model_1/cq_t2010v2_1/conv1d_1/ExpandDims/dim"], "attr": {"Tdim": {"type": "DT_INT32"}, "T": {"type": "DT_FLOAT"}}}, {"name": "StatefulPartitionedCall/model_1/cq_t2010v2_1/conv1d_2", "op": "Conv2D", "input": ["StatefulPartitionedCall/model_1/cq_t2010v2_1/conv1d_2/ExpandDims", "StatefulPartitionedCall/model_1/cq_t2010v2_1/conv1d_2/ExpandDims_1"], "device": "/device:CPU:0", "attr": {"dilations": {"list": {"i": ["1", "1", "1", "1"]}}, "padding": {"s": "VkFMSUQ="}, "strides": {"list": {"i": ["1", "1", "2", "1"]}}, "T": {"type": "DT_FLOAT"}, "explicit_paddings": {"list": {}}, "use_cudnn_on_gpu": {"b": true}, "data_format": {"s": "TkhXQw=="}}}, {"name": "StatefulPartitionedCall/model_1/cq_t2010v2_1/conv1d", "op": "Conv2D", "input": ["StatefulPartitionedCall/model_1/cq_t2010v2_1/conv1d/ExpandDims", "StatefulPartitionedCall/model_1/cq_t2010v2_1/conv1d/ExpandDims_1"], "device": "/device:CPU:0", "attr": {"strides": {"list": {"i": ["1", "1", "256", "1"]}}, "padding": {"s": "VkFMSUQ="}, "dilations": {"list": {"i": ["1", "1", "1", "1"]}}, "T": {"type": "DT_FLOAT"}, "use_cudnn_on_gpu": {"b": true}, "data_format": {"s": "TkhXQw=="}, "explicit_paddings": {"list": {}}}}, {"name": "StatefulPartitionedCall/model_1/cq_t2010v2_1/conv1d_1", "op": "Conv2D", "input": ["StatefulPartitionedCall/model_1/cq_t2010v2_1/conv1d_1/ExpandDims", "StatefulPartitionedCall/model_1/cq_t2010v2_1/conv1d_1/ExpandDims_1"], "device": "/device:CPU:0", "attr": {"padding": {"s": "VkFMSUQ="}, "dilations": {"list": {"i": ["1", "1", "1", "1"]}}, "strides": {"list": {"i": ["1", "1", "256", "1"]}}, "explicit_paddings": {"list": {}}, "use_cudnn_on_gpu": {"b": true}, "data_format": {"s": "TkhXQw=="}, "T": {"type": "DT_FLOAT"}}}, {"name": "StatefulPartitionedCall/model_1/cq_t2010v2_1/conv1d_2/Squeeze", "op": "Squeeze", "input": ["StatefulPartitionedCall/model_1/cq_t2010v2_1/conv1d_2"], "attr": {"squeeze_dims": {"list": {"i": ["-3"]}}, "T": {"type": "DT_FLOAT"}}}, {"name": "StatefulPartitionedCall/model_1/cq_t2010v2_1/conv1d/Squeeze", "op": "Squeeze", "input": ["StatefulPartitionedCall/model_1/cq_t2010v2_1/conv1d"], "attr": {"squeeze_dims": {"list": {"i": ["-3"]}}, "T": {"type": "DT_FLOAT"}}}, {"name": "StatefulPartitionedCall/model_1/cq_t2010v2_1/conv1d_1/Squeeze", "op": "Squeeze", "input": ["StatefulPartitionedCall/model_1/cq_t2010v2_1/conv1d_1"], "attr": {"T": {"type": "DT_FLOAT"}, "squeeze_dims": {"list": {"i": ["-3"]}}}}, {"name": "StatefulPartitionedCall/model_1/cq_t2010v2_1/transpose_7", "op": "Transpose", "input": ["StatefulPartitionedCall/model_1/cq_t2010v2_1/conv1d_2/Squeeze", "StatefulPartitionedCall/model_1/cq_t2010v2_1/transpose_7/perm"], "attr": {"T": {"type": "DT_FLOAT"}, "Tperm": {"type": "DT_INT32"}}}, {"name": "StatefulPartitionedCall/model_1/cq_t2010v2_1/transpose_2", "op": "Transpose", "input": ["StatefulPartitionedCall/model_1/cq_t2010v2_1/conv1d/Squeeze", "StatefulPartitionedCall/model_1/cq_t2010v2_1/transpose_2/perm"], "attr": {"T": {"type": "DT_FLOAT"}, "Tperm": {"type": "DT_INT32"}}}, {"name": "StatefulPartitionedCall/model_1/cq_t2010v2_1/transpose_5", "op": "Transpose", "input": ["StatefulPartitionedCall/model_1/cq_t2010v2_1/conv1d_1/Squeeze", "StatefulPartitionedCall/model_1/cq_t2010v2_1/transpose_5/perm"], "attr": {"Tperm": {"type": "DT_INT32"}, "T": {"type": "DT_FLOAT"}}}, {"name": "StatefulPartitionedCall/model_1/cq_t2010v2_1/Pad_1", "op": "Pad", "input": ["StatefulPartitionedCall/model_1/cq_t2010v2_1/transpose_7", "StatefulPartitionedCall/model_1/cq_t2010v2_1/Pad_1/paddings"], "attr": {"Tpaddings": {"type": "DT_INT32"}, "T": {"type": "DT_FLOAT"}}}, {"name": "StatefulPartitionedCall/model_1/cq_t2010v2_1/reflection_pad1d/MirrorPad_1", "op": "MirrorPad", "input": ["StatefulPartitionedCall/model_1/cq_t2010v2_1/transpose_7", "StatefulPartitionedCall/model_1/cq_t2010v2_1/reflection_pad1d/MirrorPad_1/paddings"], "attr": {"T": {"type": "DT_FLOAT"}, "Tpaddings": {"type": "DT_INT32"}, "mode": {"s": "UkVGTEVDVA=="}}}, {"name": "StatefulPartitionedCall/model_1/cq_t2010v2_1/Neg", "op": "Neg", "input": ["StatefulPartitionedCall/model_1/cq_t2010v2_1/transpose_5"], "attr": {"T": {"type": "DT_FLOAT"}}}, {"name": "StatefulPartitionedCall/model_1/cq_t2010v2_1/transpose_14", "op": "Transpose", "input": ["StatefulPartitionedCall/model_1/cq_t2010v2_1/Pad_1", "StatefulPartitionedCall/model_1/cq_t2010v2_1/transpose_14/perm"], "attr": {"Tperm": {"type": "DT_INT32"}, "T": {"type": "DT_FLOAT"}}}, {"name": "StatefulPartitionedCall/model_1/cq_t2010v2_1/transpose_8", "op": "Transpose", "input": ["StatefulPartitionedCall/model_1/cq_t2010v2_1/reflection_pad1d/MirrorPad_1", "StatefulPartitionedCall/model_1/cq_t2010v2_1/transpose_8/perm"], "attr": {"Tperm": {"type": "DT_INT32"}, "T": {"type": "DT_FLOAT"}}}, {"name": "StatefulPartitionedCall/model_1/cq_t2010v2_1/transpose_11", "op": "Transpose", "input": ["StatefulPartitionedCall/model_1/cq_t2010v2_1/reflection_pad1d/MirrorPad_1", "StatefulPartitionedCall/model_1/cq_t2010v2_1/transpose_11/perm"], "attr": {"T": {"type": "DT_FLOAT"}, "Tperm": {"type": "DT_INT32"}}}, {"name": "StatefulPartitionedCall/model_1/cq_t2010v2_1/stack", "op": "Pack", "input": ["StatefulPartitionedCall/model_1/cq_t2010v2_1/transpose_2", "StatefulPartitionedCall/model_1/cq_t2010v2_1/Neg"], "attr": {"axis": {"i": "-1"}, "N": {"i": "2"}, "T": {"type": "DT_FLOAT"}}}, {"name": "StatefulPartitionedCall/model_1/cq_t2010v2_1/conv1d_5/ExpandDims", "op": "ExpandDims", "input": ["StatefulPartitionedCall/model_1/cq_t2010v2_1/transpose_14", "StatefulPartitionedCall/model_1/cq_t2010v2_1/conv1d_5/ExpandDims/dim"], "attr": {"T": {"type": "DT_FLOAT"}, "Tdim": {"type": "DT_INT32"}}}, {"name": "StatefulPartitionedCall/model_1/cq_t2010v2_1/conv1d_3/ExpandDims", "op": "ExpandDims", "input": ["StatefulPartitionedCall/model_1/cq_t2010v2_1/transpose_8", "StatefulPartitionedCall/model_1/cq_t2010v2_1/conv1d_3/ExpandDims/dim"], "attr": {"T": {"type": "DT_FLOAT"}, "Tdim": {"type": "DT_INT32"}}}, {"name": "StatefulPartitionedCall/model_1/cq_t2010v2_1/conv1d_4/ExpandDims", "op": "ExpandDims", "input": ["StatefulPartitionedCall/model_1/cq_t2010v2_1/transpose_11", "StatefulPartitionedCall/model_1/cq_t2010v2_1/conv1d_4/ExpandDims/dim"], "attr": {"T": {"type": "DT_FLOAT"}, "Tdim": {"type": "DT_INT32"}}}, {"name": "StatefulPartitionedCall/model_1/cq_t2010v2_1/conv1d_5", "op": "Conv2D", "input": ["StatefulPartitionedCall/model_1/cq_t2010v2_1/conv1d_5/ExpandDims", "StatefulPartitionedCall/model_1/cq_t2010v2_1/conv1d_5/ExpandDims_1"], "device": "/device:CPU:0", "attr": {"use_cudnn_on_gpu": {"b": true}, "explicit_paddings": {"list": {}}, "strides": {"list": {"i": ["1", "1", "2", "1"]}}, "padding": {"s": "VkFMSUQ="}, "dilations": {"list": {"i": ["1", "1", "1", "1"]}}, "T": {"type": "DT_FLOAT"}, "data_format": {"s": "TkhXQw=="}}}, {"name": "StatefulPartitionedCall/model_1/cq_t2010v2_1/conv1d_3", "op": "Conv2D", "input": ["StatefulPartitionedCall/model_1/cq_t2010v2_1/conv1d_3/ExpandDims", "StatefulPartitionedCall/model_1/cq_t2010v2_1/conv1d_3/ExpandDims_1"], "device": "/device:CPU:0", "attr": {"strides": {"list": {"i": ["1", "1", "128", "1"]}}, "padding": {"s": "VkFMSUQ="}, "T": {"type": "DT_FLOAT"}, "explicit_paddings": {"list": {}}, "dilations": {"list": {"i": ["1", "1", "1", "1"]}}, "data_format": {"s": "TkhXQw=="}, "use_cudnn_on_gpu": {"b": true}}}, {"name": "StatefulPartitionedCall/model_1/cq_t2010v2_1/conv1d_4", "op": "Conv2D", "input": ["StatefulPartitionedCall/model_1/cq_t2010v2_1/conv1d_4/ExpandDims", "StatefulPartitionedCall/model_1/cq_t2010v2_1/conv1d_4/ExpandDims_1"], "device": "/device:CPU:0", "attr": {"use_cudnn_on_gpu": {"b": true}, "dilations": {"list": {"i": ["1", "1", "1", "1"]}}, "data_format": {"s": "TkhXQw=="}, "explicit_paddings": {"list": {}}, "T": {"type": "DT_FLOAT"}, "padding": {"s": "VkFMSUQ="}, "strides": {"list": {"i": ["1", "1", "128", "1"]}}}}, {"name": "StatefulPartitionedCall/model_1/cq_t2010v2_1/conv1d_5/Squeeze", "op": "Squeeze", "input": ["StatefulPartitionedCall/model_1/cq_t2010v2_1/conv1d_5"], "attr": {"squeeze_dims": {"list": {"i": ["-3"]}}, "T": {"type": "DT_FLOAT"}}}, {"name": "StatefulPartitionedCall/model_1/cq_t2010v2_1/conv1d_3/Squeeze", "op": "Squeeze", "input": ["StatefulPartitionedCall/model_1/cq_t2010v2_1/conv1d_3"], "attr": {"T": {"type": "DT_FLOAT"}, "squeeze_dims": {"list": {"i": ["-3"]}}}}, {"name": "StatefulPartitionedCall/model_1/cq_t2010v2_1/conv1d_4/Squeeze", "op": "Squeeze", "input": ["StatefulPartitionedCall/model_1/cq_t2010v2_1/conv1d_4"], "attr": {"squeeze_dims": {"list": {"i": ["-3"]}}, "T": {"type": "DT_FLOAT"}}}, {"name": "StatefulPartitionedCall/model_1/cq_t2010v2_1/transpose_15", "op": "Transpose", "input": ["StatefulPartitionedCall/model_1/cq_t2010v2_1/conv1d_5/Squeeze", "StatefulPartitionedCall/model_1/cq_t2010v2_1/transpose_15/perm"], "attr": {"Tperm": {"type": "DT_INT32"}, "T": {"type": "DT_FLOAT"}}}, {"name": "StatefulPartitionedCall/model_1/cq_t2010v2_1/transpose_10", "op": "Transpose", "input": ["StatefulPartitionedCall/model_1/cq_t2010v2_1/conv1d_3/Squeeze", "StatefulPartitionedCall/model_1/cq_t2010v2_1/transpose_10/perm"], "attr": {"Tperm": {"type": "DT_INT32"}, "T": {"type": "DT_FLOAT"}}}, {"name": "StatefulPartitionedCall/model_1/cq_t2010v2_1/transpose_13", "op": "Transpose", "input": ["StatefulPartitionedCall/model_1/cq_t2010v2_1/conv1d_4/Squeeze", "StatefulPartitionedCall/model_1/cq_t2010v2_1/transpose_13/perm"], "attr": {"Tperm": {"type": "DT_INT32"}, "T": {"type": "DT_FLOAT"}}}, {"name": "StatefulPartitionedCall/model_1/cq_t2010v2_1/Pad_2", "op": "Pad", "input": ["StatefulPartitionedCall/model_1/cq_t2010v2_1/transpose_15", "StatefulPartitionedCall/model_1/cq_t2010v2_1/Pad_2/paddings"], "attr": {"Tpaddings": {"type": "DT_INT32"}, "T": {"type": "DT_FLOAT"}}}, {"name": "StatefulPartitionedCall/model_1/cq_t2010v2_1/reflection_pad1d/MirrorPad_2", "op": "MirrorPad", "input": ["StatefulPartitionedCall/model_1/cq_t2010v2_1/transpose_15", "StatefulPartitionedCall/model_1/cq_t2010v2_1/reflection_pad1d/MirrorPad_2/paddings"], "attr": {"T": {"type": "DT_FLOAT"}, "mode": {"s": "UkVGTEVDVA=="}, "Tpaddings": {"type": "DT_INT32"}}}, {"name": "StatefulPartitionedCall/model_1/cq_t2010v2_1/Neg_1", "op": "Neg", "input": ["StatefulPartitionedCall/model_1/cq_t2010v2_1/transpose_13"], "attr": {"T": {"type": "DT_FLOAT"}}}, {"name": "StatefulPartitionedCall/model_1/cq_t2010v2_1/transpose_22", "op": "Transpose", "input": ["StatefulPartitionedCall/model_1/cq_t2010v2_1/Pad_2", "StatefulPartitionedCall/model_1/cq_t2010v2_1/transpose_22/perm"], "attr": {"Tperm": {"type": "DT_INT32"}, "T": {"type": "DT_FLOAT"}}}, {"name": "StatefulPartitionedCall/model_1/cq_t2010v2_1/transpose_16", "op": "Transpose", "input": ["StatefulPartitionedCall/model_1/cq_t2010v2_1/reflection_pad1d/MirrorPad_2", "StatefulPartitionedCall/model_1/cq_t2010v2_1/transpose_16/perm"], "attr": {"T": {"type": "DT_FLOAT"}, "Tperm": {"type": "DT_INT32"}}}, {"name": "StatefulPartitionedCall/model_1/cq_t2010v2_1/transpose_19", "op": "Transpose", "input": ["StatefulPartitionedCall/model_1/cq_t2010v2_1/reflection_pad1d/MirrorPad_2", "StatefulPartitionedCall/model_1/cq_t2010v2_1/transpose_19/perm"], "attr": {"T": {"type": "DT_FLOAT"}, "Tperm": {"type": "DT_INT32"}}}, {"name": "StatefulPartitionedCall/model_1/cq_t2010v2_1/stack_1", "op": "Pack", "input": ["StatefulPartitionedCall/model_1/cq_t2010v2_1/transpose_10", "StatefulPartitionedCall/model_1/cq_t2010v2_1/Neg_1"], "attr": {"N": {"i": "2"}, "axis": {"i": "-1"}, "T": {"type": "DT_FLOAT"}}}, {"name": "StatefulPartitionedCall/model_1/cq_t2010v2_1/conv1d_8/ExpandDims", "op": "ExpandDims", "input": ["StatefulPartitionedCall/model_1/cq_t2010v2_1/transpose_22", "StatefulPartitionedCall/model_1/cq_t2010v2_1/conv1d_8/ExpandDims/dim"], "attr": {"Tdim": {"type": "DT_INT32"}, "T": {"type": "DT_FLOAT"}}}, {"name": "StatefulPartitionedCall/model_1/cq_t2010v2_1/conv1d_6/ExpandDims", "op": "ExpandDims", "input": ["StatefulPartitionedCall/model_1/cq_t2010v2_1/transpose_16", "StatefulPartitionedCall/model_1/cq_t2010v2_1/conv1d_6/ExpandDims/dim"], "attr": {"Tdim": {"type": "DT_INT32"}, "T": {"type": "DT_FLOAT"}}}, {"name": "StatefulPartitionedCall/model_1/cq_t2010v2_1/conv1d_7/ExpandDims", "op": "ExpandDims", "input": ["StatefulPartitionedCall/model_1/cq_t2010v2_1/transpose_19", "StatefulPartitionedCall/model_1/cq_t2010v2_1/conv1d_7/ExpandDims/dim"], "attr": {"T": {"type": "DT_FLOAT"}, "Tdim": {"type": "DT_INT32"}}}, {"name": "StatefulPartitionedCall/model_1/cq_t2010v2_1/conv1d_8", "op": "Conv2D", "input": ["StatefulPartitionedCall/model_1/cq_t2010v2_1/conv1d_8/ExpandDims", "StatefulPartitionedCall/model_1/cq_t2010v2_1/conv1d_8/ExpandDims_1"], "device": "/device:CPU:0", "attr": {"explicit_paddings": {"list": {}}, "padding": {"s": "VkFMSUQ="}, "data_format": {"s": "TkhXQw=="}, "dilations": {"list": {"i": ["1", "1", "1", "1"]}}, "strides": {"list": {"i": ["1", "1", "2", "1"]}}, "use_cudnn_on_gpu": {"b": true}, "T": {"type": "DT_FLOAT"}}}, {"name": "StatefulPartitionedCall/model_1/cq_t2010v2_1/conv1d_6", "op": "Conv2D", "input": ["StatefulPartitionedCall/model_1/cq_t2010v2_1/conv1d_6/ExpandDims", "StatefulPartitionedCall/model_1/cq_t2010v2_1/conv1d_6/ExpandDims_1"], "device": "/device:CPU:0", "attr": {"use_cudnn_on_gpu": {"b": true}, "dilations": {"list": {"i": ["1", "1", "1", "1"]}}, "explicit_paddings": {"list": {}}, "padding": {"s": "VkFMSUQ="}, "strides": {"list": {"i": ["1", "1", "64", "1"]}}, "T": {"type": "DT_FLOAT"}, "data_format": {"s": "TkhXQw=="}}}, {"name": "StatefulPartitionedCall/model_1/cq_t2010v2_1/conv1d_7", "op": "Conv2D", "input": ["StatefulPartitionedCall/model_1/cq_t2010v2_1/conv1d_7/ExpandDims", "StatefulPartitionedCall/model_1/cq_t2010v2_1/conv1d_7/ExpandDims_1"], "device": "/device:CPU:0", "attr": {"explicit_paddings": {"list": {}}, "padding": {"s": "VkFMSUQ="}, "strides": {"list": {"i": ["1", "1", "64", "1"]}}, "T": {"type": "DT_FLOAT"}, "dilations": {"list": {"i": ["1", "1", "1", "1"]}}, "use_cudnn_on_gpu": {"b": true}, "data_format": {"s": "TkhXQw=="}}}, {"name": "StatefulPartitionedCall/model_1/cq_t2010v2_1/conv1d_8/Squeeze", "op": "Squeeze", "input": ["StatefulPartitionedCall/model_1/cq_t2010v2_1/conv1d_8"], "attr": {"T": {"type": "DT_FLOAT"}, "squeeze_dims": {"list": {"i": ["-3"]}}}}, {"name": "StatefulPartitionedCall/model_1/cq_t2010v2_1/conv1d_6/Squeeze", "op": "Squeeze", "input": ["StatefulPartitionedCall/model_1/cq_t2010v2_1/conv1d_6"], "attr": {"squeeze_dims": {"list": {"i": ["-3"]}}, "T": {"type": "DT_FLOAT"}}}, {"name": "StatefulPartitionedCall/model_1/cq_t2010v2_1/conv1d_7/Squeeze", "op": "Squeeze", "input": ["StatefulPartitionedCall/model_1/cq_t2010v2_1/conv1d_7"], "attr": {"T": {"type": "DT_FLOAT"}, "squeeze_dims": {"list": {"i": ["-3"]}}}}, {"name": "StatefulPartitionedCall/model_1/cq_t2010v2_1/transpose_23", "op": "Transpose", "input": ["StatefulPartitionedCall/model_1/cq_t2010v2_1/conv1d_8/Squeeze", "StatefulPartitionedCall/model_1/cq_t2010v2_1/transpose_23/perm"], "attr": {"Tperm": {"type": "DT_INT32"}, "T": {"type": "DT_FLOAT"}}}, {"name": "StatefulPartitionedCall/model_1/cq_t2010v2_1/transpose_18", "op": "Transpose", "input": ["StatefulPartitionedCall/model_1/cq_t2010v2_1/conv1d_6/Squeeze", "StatefulPartitionedCall/model_1/cq_t2010v2_1/transpose_18/perm"], "attr": {"Tperm": {"type": "DT_INT32"}, "T": {"type": "DT_FLOAT"}}}, {"name": "StatefulPartitionedCall/model_1/cq_t2010v2_1/transpose_21", "op": "Transpose", "input": ["StatefulPartitionedCall/model_1/cq_t2010v2_1/conv1d_7/Squeeze", "StatefulPartitionedCall/model_1/cq_t2010v2_1/transpose_21/perm"], "attr": {"T": {"type": "DT_FLOAT"}, "Tperm": {"type": "DT_INT32"}}}, {"name": "StatefulPartitionedCall/model_1/cq_t2010v2_1/Pad_3", "op": "Pad", "input": ["StatefulPartitionedCall/model_1/cq_t2010v2_1/transpose_23", "StatefulPartitionedCall/model_1/cq_t2010v2_1/Pad_3/paddings"], "attr": {"T": {"type": "DT_FLOAT"}, "Tpaddings": {"type": "DT_INT32"}}}, {"name": "StatefulPartitionedCall/model_1/cq_t2010v2_1/reflection_pad1d/MirrorPad_3", "op": "MirrorPad", "input": ["StatefulPartitionedCall/model_1/cq_t2010v2_1/transpose_23", "StatefulPartitionedCall/model_1/cq_t2010v2_1/reflection_pad1d/MirrorPad_3/paddings"], "attr": {"Tpaddings": {"type": "DT_INT32"}, "T": {"type": "DT_FLOAT"}, "mode": {"s": "UkVGTEVDVA=="}}}, {"name": "StatefulPartitionedCall/model_1/cq_t2010v2_1/Neg_2", "op": "Neg", "input": ["StatefulPartitionedCall/model_1/cq_t2010v2_1/transpose_21"], "attr": {"T": {"type": "DT_FLOAT"}}}, {"name": "StatefulPartitionedCall/model_1/cq_t2010v2_1/transpose_30", "op": "Transpose", "input": ["StatefulPartitionedCall/model_1/cq_t2010v2_1/Pad_3", "StatefulPartitionedCall/model_1/cq_t2010v2_1/transpose_30/perm"], "attr": {"T": {"type": "DT_FLOAT"}, "Tperm": {"type": "DT_INT32"}}}, {"name": "StatefulPartitionedCall/model_1/cq_t2010v2_1/transpose_24", "op": "Transpose", "input": ["StatefulPartitionedCall/model_1/cq_t2010v2_1/reflection_pad1d/MirrorPad_3", "StatefulPartitionedCall/model_1/cq_t2010v2_1/transpose_24/perm"], "attr": {"Tperm": {"type": "DT_INT32"}, "T": {"type": "DT_FLOAT"}}}, {"name": "StatefulPartitionedCall/model_1/cq_t2010v2_1/transpose_27", "op": "Transpose", "input": ["StatefulPartitionedCall/model_1/cq_t2010v2_1/reflection_pad1d/MirrorPad_3", "StatefulPartitionedCall/model_1/cq_t2010v2_1/transpose_27/perm"], "attr": {"Tperm": {"type": "DT_INT32"}, "T": {"type": "DT_FLOAT"}}}, {"name": "StatefulPartitionedCall/model_1/cq_t2010v2_1/stack_2", "op": "Pack", "input": ["StatefulPartitionedCall/model_1/cq_t2010v2_1/transpose_18", "StatefulPartitionedCall/model_1/cq_t2010v2_1/Neg_2"], "attr": {"axis": {"i": "-1"}, "N": {"i": "2"}, "T": {"type": "DT_FLOAT"}}}, {"name": "StatefulPartitionedCall/model_1/cq_t2010v2_1/conv1d_11/ExpandDims", "op": "ExpandDims", "input": ["StatefulPartitionedCall/model_1/cq_t2010v2_1/transpose_30", "StatefulPartitionedCall/model_1/cq_t2010v2_1/conv1d_11/ExpandDims/dim"], "attr": {"Tdim": {"type": "DT_INT32"}, "T": {"type": "DT_FLOAT"}}}, {"name": "StatefulPartitionedCall/model_1/cq_t2010v2_1/conv1d_9/ExpandDims", "op": "ExpandDims", "input": ["StatefulPartitionedCall/model_1/cq_t2010v2_1/transpose_24", "StatefulPartitionedCall/model_1/cq_t2010v2_1/conv1d_9/ExpandDims/dim"], "attr": {"Tdim": {"type": "DT_INT32"}, "T": {"type": "DT_FLOAT"}}}, {"name": "StatefulPartitionedCall/model_1/cq_t2010v2_1/conv1d_10/ExpandDims", "op": "ExpandDims", "input": ["StatefulPartitionedCall/model_1/cq_t2010v2_1/transpose_27", "StatefulPartitionedCall/model_1/cq_t2010v2_1/conv1d_10/ExpandDims/dim"], "attr": {"Tdim": {"type": "DT_INT32"}, "T": {"type": "DT_FLOAT"}}}, {"name": "StatefulPartitionedCall/model_1/cq_t2010v2_1/conv1d_11", "op": "Conv2D", "input": ["StatefulPartitionedCall/model_1/cq_t2010v2_1/conv1d_11/ExpandDims", "StatefulPartitionedCall/model_1/cq_t2010v2_1/conv1d_11/ExpandDims_1"], "device": "/device:CPU:0", "attr": {"strides": {"list": {"i": ["1", "1", "2", "1"]}}, "explicit_paddings": {"list": {}}, "T": {"type": "DT_FLOAT"}, "use_cudnn_on_gpu": {"b": true}, "dilations": {"list": {"i": ["1", "1", "1", "1"]}}, "padding": {"s": "VkFMSUQ="}, "data_format": {"s": "TkhXQw=="}}}, {"name": "StatefulPartitionedCall/model_1/cq_t2010v2_1/conv1d_9", "op": "Conv2D", "input": ["StatefulPartitionedCall/model_1/cq_t2010v2_1/conv1d_9/ExpandDims", "StatefulPartitionedCall/model_1/cq_t2010v2_1/conv1d_9/ExpandDims_1"], "device": "/device:CPU:0", "attr": {"dilations": {"list": {"i": ["1", "1", "1", "1"]}}, "data_format": {"s": "TkhXQw=="}, "use_cudnn_on_gpu": {"b": true}, "padding": {"s": "VkFMSUQ="}, "T": {"type": "DT_FLOAT"}, "explicit_paddings": {"list": {}}, "strides": {"list": {"i": ["1", "1", "32", "1"]}}}}, {"name": "StatefulPartitionedCall/model_1/cq_t2010v2_1/conv1d_10", "op": "Conv2D", "input": ["StatefulPartitionedCall/model_1/cq_t2010v2_1/conv1d_10/ExpandDims", "StatefulPartitionedCall/model_1/cq_t2010v2_1/conv1d_10/ExpandDims_1"], "device": "/device:CPU:0", "attr": {"strides": {"list": {"i": ["1", "1", "32", "1"]}}, "data_format": {"s": "TkhXQw=="}, "explicit_paddings": {"list": {}}, "padding": {"s": "VkFMSUQ="}, "T": {"type": "DT_FLOAT"}, "dilations": {"list": {"i": ["1", "1", "1", "1"]}}, "use_cudnn_on_gpu": {"b": true}}}, {"name": "StatefulPartitionedCall/model_1/cq_t2010v2_1/conv1d_11/Squeeze", "op": "Squeeze", "input": ["StatefulPartitionedCall/model_1/cq_t2010v2_1/conv1d_11"], "attr": {"squeeze_dims": {"list": {"i": ["-3"]}}, "T": {"type": "DT_FLOAT"}}}, {"name": "StatefulPartitionedCall/model_1/cq_t2010v2_1/conv1d_9/Squeeze", "op": "Squeeze", "input": ["StatefulPartitionedCall/model_1/cq_t2010v2_1/conv1d_9"], "attr": {"squeeze_dims": {"list": {"i": ["-3"]}}, "T": {"type": "DT_FLOAT"}}}, {"name": "StatefulPartitionedCall/model_1/cq_t2010v2_1/conv1d_10/Squeeze", "op": "Squeeze", "input": ["StatefulPartitionedCall/model_1/cq_t2010v2_1/conv1d_10"], "attr": {"T": {"type": "DT_FLOAT"}, "squeeze_dims": {"list": {"i": ["-3"]}}}}, {"name": "StatefulPartitionedCall/model_1/cq_t2010v2_1/transpose_31", "op": "Transpose", "input": ["StatefulPartitionedCall/model_1/cq_t2010v2_1/conv1d_11/Squeeze", "StatefulPartitionedCall/model_1/cq_t2010v2_1/transpose_31/perm"], "attr": {"T": {"type": "DT_FLOAT"}, "Tperm": {"type": "DT_INT32"}}}, {"name": "StatefulPartitionedCall/model_1/cq_t2010v2_1/transpose_26", "op": "Transpose", "input": ["StatefulPartitionedCall/model_1/cq_t2010v2_1/conv1d_9/Squeeze", "StatefulPartitionedCall/model_1/cq_t2010v2_1/transpose_26/perm"], "attr": {"T": {"type": "DT_FLOAT"}, "Tperm": {"type": "DT_INT32"}}}, {"name": "StatefulPartitionedCall/model_1/cq_t2010v2_1/transpose_29", "op": "Transpose", "input": ["StatefulPartitionedCall/model_1/cq_t2010v2_1/conv1d_10/Squeeze", "StatefulPartitionedCall/model_1/cq_t2010v2_1/transpose_29/perm"], "attr": {"Tperm": {"type": "DT_INT32"}, "T": {"type": "DT_FLOAT"}}}, {"name": "StatefulPartitionedCall/model_1/cq_t2010v2_1/Pad_4", "op": "Pad", "input": ["StatefulPartitionedCall/model_1/cq_t2010v2_1/transpose_31", "StatefulPartitionedCall/model_1/cq_t2010v2_1/Pad_4/paddings"], "attr": {"Tpaddings": {"type": "DT_INT32"}, "T": {"type": "DT_FLOAT"}}}, {"name": "StatefulPartitionedCall/model_1/cq_t2010v2_1/reflection_pad1d/MirrorPad_4", "op": "MirrorPad", "input": ["StatefulPartitionedCall/model_1/cq_t2010v2_1/transpose_31", "StatefulPartitionedCall/model_1/cq_t2010v2_1/reflection_pad1d/MirrorPad_4/paddings"], "attr": {"T": {"type": "DT_FLOAT"}, "Tpaddings": {"type": "DT_INT32"}, "mode": {"s": "UkVGTEVDVA=="}}}, {"name": "StatefulPartitionedCall/model_1/cq_t2010v2_1/Neg_3", "op": "Neg", "input": ["StatefulPartitionedCall/model_1/cq_t2010v2_1/transpose_29"], "attr": {"T": {"type": "DT_FLOAT"}}}, {"name": "StatefulPartitionedCall/model_1/cq_t2010v2_1/transpose_38", "op": "Transpose", "input": ["StatefulPartitionedCall/model_1/cq_t2010v2_1/Pad_4", "StatefulPartitionedCall/model_1/cq_t2010v2_1/transpose_38/perm"], "attr": {"Tperm": {"type": "DT_INT32"}, "T": {"type": "DT_FLOAT"}}}, {"name": "StatefulPartitionedCall/model_1/cq_t2010v2_1/transpose_32", "op": "Transpose", "input": ["StatefulPartitionedCall/model_1/cq_t2010v2_1/reflection_pad1d/MirrorPad_4", "StatefulPartitionedCall/model_1/cq_t2010v2_1/transpose_32/perm"], "attr": {"Tperm": {"type": "DT_INT32"}, "T": {"type": "DT_FLOAT"}}}, {"name": "StatefulPartitionedCall/model_1/cq_t2010v2_1/transpose_35", "op": "Transpose", "input": ["StatefulPartitionedCall/model_1/cq_t2010v2_1/reflection_pad1d/MirrorPad_4", "StatefulPartitionedCall/model_1/cq_t2010v2_1/transpose_35/perm"], "attr": {"Tperm": {"type": "DT_INT32"}, "T": {"type": "DT_FLOAT"}}}, {"name": "StatefulPartitionedCall/model_1/cq_t2010v2_1/stack_3", "op": "Pack", "input": ["StatefulPartitionedCall/model_1/cq_t2010v2_1/transpose_26", "StatefulPartitionedCall/model_1/cq_t2010v2_1/Neg_3"], "attr": {"T": {"type": "DT_FLOAT"}, "axis": {"i": "-1"}, "N": {"i": "2"}}}, {"name": "StatefulPartitionedCall/model_1/cq_t2010v2_1/conv1d_14/ExpandDims", "op": "ExpandDims", "input": ["StatefulPartitionedCall/model_1/cq_t2010v2_1/transpose_38", "StatefulPartitionedCall/model_1/cq_t2010v2_1/conv1d_14/ExpandDims/dim"], "attr": {"Tdim": {"type": "DT_INT32"}, "T": {"type": "DT_FLOAT"}}}, {"name": "StatefulPartitionedCall/model_1/cq_t2010v2_1/conv1d_12/ExpandDims", "op": "ExpandDims", "input": ["StatefulPartitionedCall/model_1/cq_t2010v2_1/transpose_32", "StatefulPartitionedCall/model_1/cq_t2010v2_1/conv1d_12/ExpandDims/dim"], "attr": {"T": {"type": "DT_FLOAT"}, "Tdim": {"type": "DT_INT32"}}}, {"name": "StatefulPartitionedCall/model_1/cq_t2010v2_1/conv1d_13/ExpandDims", "op": "ExpandDims", "input": ["StatefulPartitionedCall/model_1/cq_t2010v2_1/transpose_35", "StatefulPartitionedCall/model_1/cq_t2010v2_1/conv1d_13/ExpandDims/dim"], "attr": {"T": {"type": "DT_FLOAT"}, "Tdim": {"type": "DT_INT32"}}}, {"name": "StatefulPartitionedCall/model_1/cq_t2010v2_1/conv1d_14", "op": "Conv2D", "input": ["StatefulPartitionedCall/model_1/cq_t2010v2_1/conv1d_14/ExpandDims", "StatefulPartitionedCall/model_1/cq_t2010v2_1/conv1d_14/ExpandDims_1"], "device": "/device:CPU:0", "attr": {"use_cudnn_on_gpu": {"b": true}, "T": {"type": "DT_FLOAT"}, "padding": {"s": "VkFMSUQ="}, "strides": {"list": {"i": ["1", "1", "2", "1"]}}, "dilations": {"list": {"i": ["1", "1", "1", "1"]}}, "explicit_paddings": {"list": {}}, "data_format": {"s": "TkhXQw=="}}}, {"name": "StatefulPartitionedCall/model_1/cq_t2010v2_1/conv1d_12", "op": "Conv2D", "input": ["StatefulPartitionedCall/model_1/cq_t2010v2_1/conv1d_12/ExpandDims", "StatefulPartitionedCall/model_1/cq_t2010v2_1/conv1d_12/ExpandDims_1"], "device": "/device:CPU:0", "attr": {"explicit_paddings": {"list": {}}, "strides": {"list": {"i": ["1", "1", "16", "1"]}}, "dilations": {"list": {"i": ["1", "1", "1", "1"]}}, "data_format": {"s": "TkhXQw=="}, "padding": {"s": "VkFMSUQ="}, "use_cudnn_on_gpu": {"b": true}, "T": {"type": "DT_FLOAT"}}}, {"name": "StatefulPartitionedCall/model_1/cq_t2010v2_1/conv1d_13", "op": "Conv2D", "input": ["StatefulPartitionedCall/model_1/cq_t2010v2_1/conv1d_13/ExpandDims", "StatefulPartitionedCall/model_1/cq_t2010v2_1/conv1d_13/ExpandDims_1"], "device": "/device:CPU:0", "attr": {"data_format": {"s": "TkhXQw=="}, "padding": {"s": "VkFMSUQ="}, "explicit_paddings": {"list": {}}, "dilations": {"list": {"i": ["1", "1", "1", "1"]}}, "strides": {"list": {"i": ["1", "1", "16", "1"]}}, "use_cudnn_on_gpu": {"b": true}, "T": {"type": "DT_FLOAT"}}}, {"name": "StatefulPartitionedCall/model_1/cq_t2010v2_1/conv1d_14/Squeeze", "op": "Squeeze", "input": ["StatefulPartitionedCall/model_1/cq_t2010v2_1/conv1d_14"], "attr": {"squeeze_dims": {"list": {"i": ["-3"]}}, "T": {"type": "DT_FLOAT"}}}, {"name": "StatefulPartitionedCall/model_1/cq_t2010v2_1/conv1d_12/Squeeze", "op": "Squeeze", "input": ["StatefulPartitionedCall/model_1/cq_t2010v2_1/conv1d_12"], "attr": {"T": {"type": "DT_FLOAT"}, "squeeze_dims": {"list": {"i": ["-3"]}}}}, {"name": "StatefulPartitionedCall/model_1/cq_t2010v2_1/conv1d_13/Squeeze", "op": "Squeeze", "input": ["StatefulPartitionedCall/model_1/cq_t2010v2_1/conv1d_13"], "attr": {"squeeze_dims": {"list": {"i": ["-3"]}}, "T": {"type": "DT_FLOAT"}}}, {"name": "StatefulPartitionedCall/model_1/cq_t2010v2_1/transpose_39", "op": "Transpose", "input": ["StatefulPartitionedCall/model_1/cq_t2010v2_1/conv1d_14/Squeeze", "StatefulPartitionedCall/model_1/cq_t2010v2_1/transpose_39/perm"], "attr": {"Tperm": {"type": "DT_INT32"}, "T": {"type": "DT_FLOAT"}}}, {"name": "StatefulPartitionedCall/model_1/cq_t2010v2_1/transpose_34", "op": "Transpose", "input": ["StatefulPartitionedCall/model_1/cq_t2010v2_1/conv1d_12/Squeeze", "StatefulPartitionedCall/model_1/cq_t2010v2_1/transpose_34/perm"], "attr": {"Tperm": {"type": "DT_INT32"}, "T": {"type": "DT_FLOAT"}}}, {"name": "StatefulPartitionedCall/model_1/cq_t2010v2_1/transpose_37", "op": "Transpose", "input": ["StatefulPartitionedCall/model_1/cq_t2010v2_1/conv1d_13/Squeeze", "StatefulPartitionedCall/model_1/cq_t2010v2_1/transpose_37/perm"], "attr": {"Tperm": {"type": "DT_INT32"}, "T": {"type": "DT_FLOAT"}}}, {"name": "StatefulPartitionedCall/model_1/cq_t2010v2_1/Pad_5", "op": "Pad", "input": ["StatefulPartitionedCall/model_1/cq_t2010v2_1/transpose_39", "StatefulPartitionedCall/model_1/cq_t2010v2_1/Pad_5/paddings"], "attr": {"T": {"type": "DT_FLOAT"}, "Tpaddings": {"type": "DT_INT32"}}}, {"name": "StatefulPartitionedCall/model_1/cq_t2010v2_1/reflection_pad1d/MirrorPad_5", "op": "MirrorPad", "input": ["StatefulPartitionedCall/model_1/cq_t2010v2_1/transpose_39", "StatefulPartitionedCall/model_1/cq_t2010v2_1/reflection_pad1d/MirrorPad_5/paddings"], "attr": {"T": {"type": "DT_FLOAT"}, "mode": {"s": "UkVGTEVDVA=="}, "Tpaddings": {"type": "DT_INT32"}}}, {"name": "StatefulPartitionedCall/model_1/cq_t2010v2_1/Neg_4", "op": "Neg", "input": ["StatefulPartitionedCall/model_1/cq_t2010v2_1/transpose_37"], "attr": {"T": {"type": "DT_FLOAT"}}}, {"name": "StatefulPartitionedCall/model_1/cq_t2010v2_1/transpose_46", "op": "Transpose", "input": ["StatefulPartitionedCall/model_1/cq_t2010v2_1/Pad_5", "StatefulPartitionedCall/model_1/cq_t2010v2_1/transpose_46/perm"], "attr": {"T": {"type": "DT_FLOAT"}, "Tperm": {"type": "DT_INT32"}}}, {"name": "StatefulPartitionedCall/model_1/cq_t2010v2_1/transpose_40", "op": "Transpose", "input": ["StatefulPartitionedCall/model_1/cq_t2010v2_1/reflection_pad1d/MirrorPad_5", "StatefulPartitionedCall/model_1/cq_t2010v2_1/transpose_40/perm"], "attr": {"T": {"type": "DT_FLOAT"}, "Tperm": {"type": "DT_INT32"}}}, {"name": "StatefulPartitionedCall/model_1/cq_t2010v2_1/transpose_43", "op": "Transpose", "input": ["StatefulPartitionedCall/model_1/cq_t2010v2_1/reflection_pad1d/MirrorPad_5", "StatefulPartitionedCall/model_1/cq_t2010v2_1/transpose_43/perm"], "attr": {"Tperm": {"type": "DT_INT32"}, "T": {"type": "DT_FLOAT"}}}, {"name": "StatefulPartitionedCall/model_1/cq_t2010v2_1/stack_4", "op": "Pack", "input": ["StatefulPartitionedCall/model_1/cq_t2010v2_1/transpose_34", "StatefulPartitionedCall/model_1/cq_t2010v2_1/Neg_4"], "attr": {"N": {"i": "2"}, "axis": {"i": "-1"}, "T": {"type": "DT_FLOAT"}}}, {"name": "StatefulPartitionedCall/model_1/cq_t2010v2_1/conv1d_17/ExpandDims", "op": "ExpandDims", "input": ["StatefulPartitionedCall/model_1/cq_t2010v2_1/transpose_46", "StatefulPartitionedCall/model_1/cq_t2010v2_1/conv1d_17/ExpandDims/dim"], "attr": {"T": {"type": "DT_FLOAT"}, "Tdim": {"type": "DT_INT32"}}}, {"name": "StatefulPartitionedCall/model_1/cq_t2010v2_1/conv1d_15/ExpandDims", "op": "ExpandDims", "input": ["StatefulPartitionedCall/model_1/cq_t2010v2_1/transpose_40", "StatefulPartitionedCall/model_1/cq_t2010v2_1/conv1d_15/ExpandDims/dim"], "attr": {"Tdim": {"type": "DT_INT32"}, "T": {"type": "DT_FLOAT"}}}, {"name": "StatefulPartitionedCall/model_1/cq_t2010v2_1/conv1d_16/ExpandDims", "op": "ExpandDims", "input": ["StatefulPartitionedCall/model_1/cq_t2010v2_1/transpose_43", "StatefulPartitionedCall/model_1/cq_t2010v2_1/conv1d_16/ExpandDims/dim"], "attr": {"Tdim": {"type": "DT_INT32"}, "T": {"type": "DT_FLOAT"}}}, {"name": "StatefulPartitionedCall/model_1/cq_t2010v2_1/conv1d_17", "op": "Conv2D", "input": ["StatefulPartitionedCall/model_1/cq_t2010v2_1/conv1d_17/ExpandDims", "StatefulPartitionedCall/model_1/cq_t2010v2_1/conv1d_17/ExpandDims_1"], "device": "/device:CPU:0", "attr": {"use_cudnn_on_gpu": {"b": true}, "dilations": {"list": {"i": ["1", "1", "1", "1"]}}, "strides": {"list": {"i": ["1", "1", "2", "1"]}}, "data_format": {"s": "TkhXQw=="}, "T": {"type": "DT_FLOAT"}, "padding": {"s": "VkFMSUQ="}, "explicit_paddings": {"list": {}}}}, {"name": "StatefulPartitionedCall/model_1/cq_t2010v2_1/conv1d_15", "op": "Conv2D", "input": ["StatefulPartitionedCall/model_1/cq_t2010v2_1/conv1d_15/ExpandDims", "StatefulPartitionedCall/model_1/cq_t2010v2_1/conv1d_15/ExpandDims_1"], "device": "/device:CPU:0", "attr": {"T": {"type": "DT_FLOAT"}, "dilations": {"list": {"i": ["1", "1", "1", "1"]}}, "data_format": {"s": "TkhXQw=="}, "explicit_paddings": {"list": {}}, "strides": {"list": {"i": ["1", "1", "8", "1"]}}, "padding": {"s": "VkFMSUQ="}, "use_cudnn_on_gpu": {"b": true}}}, {"name": "StatefulPartitionedCall/model_1/cq_t2010v2_1/conv1d_16", "op": "Conv2D", "input": ["StatefulPartitionedCall/model_1/cq_t2010v2_1/conv1d_16/ExpandDims", "StatefulPartitionedCall/model_1/cq_t2010v2_1/conv1d_16/ExpandDims_1"], "device": "/device:CPU:0", "attr": {"dilations": {"list": {"i": ["1", "1", "1", "1"]}}, "data_format": {"s": "TkhXQw=="}, "T": {"type": "DT_FLOAT"}, "explicit_paddings": {"list": {}}, "strides": {"list": {"i": ["1", "1", "8", "1"]}}, "use_cudnn_on_gpu": {"b": true}, "padding": {"s": "VkFMSUQ="}}}, {"name": "StatefulPartitionedCall/model_1/cq_t2010v2_1/conv1d_17/Squeeze", "op": "Squeeze", "input": ["StatefulPartitionedCall/model_1/cq_t2010v2_1/conv1d_17"], "attr": {"squeeze_dims": {"list": {"i": ["-3"]}}, "T": {"type": "DT_FLOAT"}}}, {"name": "StatefulPartitionedCall/model_1/cq_t2010v2_1/conv1d_15/Squeeze", "op": "Squeeze", "input": ["StatefulPartitionedCall/model_1/cq_t2010v2_1/conv1d_15"], "attr": {"squeeze_dims": {"list": {"i": ["-3"]}}, "T": {"type": "DT_FLOAT"}}}, {"name": "StatefulPartitionedCall/model_1/cq_t2010v2_1/conv1d_16/Squeeze", "op": "Squeeze", "input": ["StatefulPartitionedCall/model_1/cq_t2010v2_1/conv1d_16"], "attr": {"T": {"type": "DT_FLOAT"}, "squeeze_dims": {"list": {"i": ["-3"]}}}}, {"name": "StatefulPartitionedCall/model_1/cq_t2010v2_1/transpose_47", "op": "Transpose", "input": ["StatefulPartitionedCall/model_1/cq_t2010v2_1/conv1d_17/Squeeze", "StatefulPartitionedCall/model_1/cq_t2010v2_1/transpose_47/perm"], "attr": {"T": {"type": "DT_FLOAT"}, "Tperm": {"type": "DT_INT32"}}}, {"name": "StatefulPartitionedCall/model_1/cq_t2010v2_1/transpose_42", "op": "Transpose", "input": ["StatefulPartitionedCall/model_1/cq_t2010v2_1/conv1d_15/Squeeze", "StatefulPartitionedCall/model_1/cq_t2010v2_1/transpose_42/perm"], "attr": {"Tperm": {"type": "DT_INT32"}, "T": {"type": "DT_FLOAT"}}}, {"name": "StatefulPartitionedCall/model_1/cq_t2010v2_1/transpose_45", "op": "Transpose", "input": ["StatefulPartitionedCall/model_1/cq_t2010v2_1/conv1d_16/Squeeze", "StatefulPartitionedCall/model_1/cq_t2010v2_1/transpose_45/perm"], "attr": {"T": {"type": "DT_FLOAT"}, "Tperm": {"type": "DT_INT32"}}}, {"name": "StatefulPartitionedCall/model_1/cq_t2010v2_1/Pad_6", "op": "Pad", "input": ["StatefulPartitionedCall/model_1/cq_t2010v2_1/transpose_47", "StatefulPartitionedCall/model_1/cq_t2010v2_1/Pad_6/paddings"], "attr": {"Tpaddings": {"type": "DT_INT32"}, "T": {"type": "DT_FLOAT"}}}, {"name": "StatefulPartitionedCall/model_1/cq_t2010v2_1/reflection_pad1d/MirrorPad_6", "op": "MirrorPad", "input": ["StatefulPartitionedCall/model_1/cq_t2010v2_1/transpose_47", "StatefulPartitionedCall/model_1/cq_t2010v2_1/reflection_pad1d/MirrorPad_6/paddings"], "attr": {"mode": {"s": "UkVGTEVDVA=="}, "Tpaddings": {"type": "DT_INT32"}, "T": {"type": "DT_FLOAT"}}}, {"name": "StatefulPartitionedCall/model_1/cq_t2010v2_1/Neg_5", "op": "Neg", "input": ["StatefulPartitionedCall/model_1/cq_t2010v2_1/transpose_45"], "attr": {"T": {"type": "DT_FLOAT"}}}, {"name": "StatefulPartitionedCall/model_1/cq_t2010v2_1/transpose_54", "op": "Transpose", "input": ["StatefulPartitionedCall/model_1/cq_t2010v2_1/Pad_6", "StatefulPartitionedCall/model_1/cq_t2010v2_1/transpose_54/perm"], "attr": {"T": {"type": "DT_FLOAT"}, "Tperm": {"type": "DT_INT32"}}}, {"name": "StatefulPartitionedCall/model_1/cq_t2010v2_1/transpose_48", "op": "Transpose", "input": ["StatefulPartitionedCall/model_1/cq_t2010v2_1/reflection_pad1d/MirrorPad_6", "StatefulPartitionedCall/model_1/cq_t2010v2_1/transpose_48/perm"], "attr": {"Tperm": {"type": "DT_INT32"}, "T": {"type": "DT_FLOAT"}}}, {"name": "StatefulPartitionedCall/model_1/cq_t2010v2_1/transpose_51", "op": "Transpose", "input": ["StatefulPartitionedCall/model_1/cq_t2010v2_1/reflection_pad1d/MirrorPad_6", "StatefulPartitionedCall/model_1/cq_t2010v2_1/transpose_51/perm"], "attr": {"Tperm": {"type": "DT_INT32"}, "T": {"type": "DT_FLOAT"}}}, {"name": "StatefulPartitionedCall/model_1/cq_t2010v2_1/stack_5", "op": "Pack", "input": ["StatefulPartitionedCall/model_1/cq_t2010v2_1/transpose_42", "StatefulPartitionedCall/model_1/cq_t2010v2_1/Neg_5"], "attr": {"axis": {"i": "-1"}, "N": {"i": "2"}, "T": {"type": "DT_FLOAT"}}}, {"name": "StatefulPartitionedCall/model_1/cq_t2010v2_1/conv1d_20/ExpandDims", "op": "ExpandDims", "input": ["StatefulPartitionedCall/model_1/cq_t2010v2_1/transpose_54", "StatefulPartitionedCall/model_1/cq_t2010v2_1/conv1d_20/ExpandDims/dim"], "attr": {"T": {"type": "DT_FLOAT"}, "Tdim": {"type": "DT_INT32"}}}, {"name": "StatefulPartitionedCall/model_1/cq_t2010v2_1/conv1d_18/ExpandDims", "op": "ExpandDims", "input": ["StatefulPartitionedCall/model_1/cq_t2010v2_1/transpose_48", "StatefulPartitionedCall/model_1/cq_t2010v2_1/conv1d_18/ExpandDims/dim"], "attr": {"T": {"type": "DT_FLOAT"}, "Tdim": {"type": "DT_INT32"}}}, {"name": "StatefulPartitionedCall/model_1/cq_t2010v2_1/conv1d_19/ExpandDims", "op": "ExpandDims", "input": ["StatefulPartitionedCall/model_1/cq_t2010v2_1/transpose_51", "StatefulPartitionedCall/model_1/cq_t2010v2_1/conv1d_19/ExpandDims/dim"], "attr": {"Tdim": {"type": "DT_INT32"}, "T": {"type": "DT_FLOAT"}}}, {"name": "StatefulPartitionedCall/model_1/cq_t2010v2_1/conv1d_20", "op": "Conv2D", "input": ["StatefulPartitionedCall/model_1/cq_t2010v2_1/conv1d_20/ExpandDims", "StatefulPartitionedCall/model_1/cq_t2010v2_1/conv1d_20/ExpandDims_1"], "device": "/device:CPU:0", "attr": {"T": {"type": "DT_FLOAT"}, "dilations": {"list": {"i": ["1", "1", "1", "1"]}}, "strides": {"list": {"i": ["1", "1", "2", "1"]}}, "padding": {"s": "VkFMSUQ="}, "use_cudnn_on_gpu": {"b": true}, "explicit_paddings": {"list": {}}, "data_format": {"s": "TkhXQw=="}}}, {"name": "StatefulPartitionedCall/model_1/cq_t2010v2_1/conv1d_18", "op": "Conv2D", "input": ["StatefulPartitionedCall/model_1/cq_t2010v2_1/conv1d_18/ExpandDims", "StatefulPartitionedCall/model_1/cq_t2010v2_1/conv1d_18/ExpandDims_1"], "device": "/device:CPU:0", "attr": {"dilations": {"list": {"i": ["1", "1", "1", "1"]}}, "strides": {"list": {"i": ["1", "1", "4", "1"]}}, "use_cudnn_on_gpu": {"b": true}, "data_format": {"s": "TkhXQw=="}, "T": {"type": "DT_FLOAT"}, "explicit_paddings": {"list": {}}, "padding": {"s": "VkFMSUQ="}}}, {"name": "StatefulPartitionedCall/model_1/cq_t2010v2_1/conv1d_19", "op": "Conv2D", "input": ["StatefulPartitionedCall/model_1/cq_t2010v2_1/conv1d_19/ExpandDims", "StatefulPartitionedCall/model_1/cq_t2010v2_1/conv1d_19/ExpandDims_1"], "device": "/device:CPU:0", "attr": {"T": {"type": "DT_FLOAT"}, "data_format": {"s": "TkhXQw=="}, "explicit_paddings": {"list": {}}, "dilations": {"list": {"i": ["1", "1", "1", "1"]}}, "strides": {"list": {"i": ["1", "1", "4", "1"]}}, "padding": {"s": "VkFMSUQ="}, "use_cudnn_on_gpu": {"b": true}}}, {"name": "StatefulPartitionedCall/model_1/cq_t2010v2_1/conv1d_20/Squeeze", "op": "Squeeze", "input": ["StatefulPartitionedCall/model_1/cq_t2010v2_1/conv1d_20"], "attr": {"squeeze_dims": {"list": {"i": ["-3"]}}, "T": {"type": "DT_FLOAT"}}}, {"name": "StatefulPartitionedCall/model_1/cq_t2010v2_1/conv1d_18/Squeeze", "op": "Squeeze", "input": ["StatefulPartitionedCall/model_1/cq_t2010v2_1/conv1d_18"], "attr": {"squeeze_dims": {"list": {"i": ["-3"]}}, "T": {"type": "DT_FLOAT"}}}, {"name": "StatefulPartitionedCall/model_1/cq_t2010v2_1/conv1d_19/Squeeze", "op": "Squeeze", "input": ["StatefulPartitionedCall/model_1/cq_t2010v2_1/conv1d_19"], "attr": {"squeeze_dims": {"list": {"i": ["-3"]}}, "T": {"type": "DT_FLOAT"}}}, {"name": "StatefulPartitionedCall/model_1/cq_t2010v2_1/transpose_55", "op": "Transpose", "input": ["StatefulPartitionedCall/model_1/cq_t2010v2_1/conv1d_20/Squeeze", "StatefulPartitionedCall/model_1/cq_t2010v2_1/transpose_55/perm"], "attr": {"T": {"type": "DT_FLOAT"}, "Tperm": {"type": "DT_INT32"}}}, {"name": "StatefulPartitionedCall/model_1/cq_t2010v2_1/transpose_50", "op": "Transpose", "input": ["StatefulPartitionedCall/model_1/cq_t2010v2_1/conv1d_18/Squeeze", "StatefulPartitionedCall/model_1/cq_t2010v2_1/transpose_50/perm"], "attr": {"T": {"type": "DT_FLOAT"}, "Tperm": {"type": "DT_INT32"}}}, {"name": "StatefulPartitionedCall/model_1/cq_t2010v2_1/transpose_53", "op": "Transpose", "input": ["StatefulPartitionedCall/model_1/cq_t2010v2_1/conv1d_19/Squeeze", "StatefulPartitionedCall/model_1/cq_t2010v2_1/transpose_53/perm"], "attr": {"Tperm": {"type": "DT_INT32"}, "T": {"type": "DT_FLOAT"}}}, {"name": "StatefulPartitionedCall/model_1/cq_t2010v2_1/Pad_7", "op": "Pad", "input": ["StatefulPartitionedCall/model_1/cq_t2010v2_1/transpose_55", "StatefulPartitionedCall/model_1/cq_t2010v2_1/Pad_7/paddings"], "attr": {"Tpaddings": {"type": "DT_INT32"}, "T": {"type": "DT_FLOAT"}}}, {"name": "StatefulPartitionedCall/model_1/cq_t2010v2_1/reflection_pad1d/MirrorPad_7", "op": "MirrorPad", "input": ["StatefulPartitionedCall/model_1/cq_t2010v2_1/transpose_55", "StatefulPartitionedCall/model_1/cq_t2010v2_1/reflection_pad1d/MirrorPad_7/paddings"], "attr": {"Tpaddings": {"type": "DT_INT32"}, "T": {"type": "DT_FLOAT"}, "mode": {"s": "UkVGTEVDVA=="}}}, {"name": "StatefulPartitionedCall/model_1/cq_t2010v2_1/Neg_6", "op": "Neg", "input": ["StatefulPartitionedCall/model_1/cq_t2010v2_1/transpose_53"], "attr": {"T": {"type": "DT_FLOAT"}}}, {"name": "StatefulPartitionedCall/model_1/cq_t2010v2_1/transpose_62", "op": "Transpose", "input": ["StatefulPartitionedCall/model_1/cq_t2010v2_1/Pad_7", "StatefulPartitionedCall/model_1/cq_t2010v2_1/transpose_62/perm"], "attr": {"T": {"type": "DT_FLOAT"}, "Tperm": {"type": "DT_INT32"}}}, {"name": "StatefulPartitionedCall/model_1/cq_t2010v2_1/transpose_56", "op": "Transpose", "input": ["StatefulPartitionedCall/model_1/cq_t2010v2_1/reflection_pad1d/MirrorPad_7", "StatefulPartitionedCall/model_1/cq_t2010v2_1/transpose_56/perm"], "attr": {"T": {"type": "DT_FLOAT"}, "Tperm": {"type": "DT_INT32"}}}, {"name": "StatefulPartitionedCall/model_1/cq_t2010v2_1/transpose_59", "op": "Transpose", "input": ["StatefulPartitionedCall/model_1/cq_t2010v2_1/reflection_pad1d/MirrorPad_7", "StatefulPartitionedCall/model_1/cq_t2010v2_1/transpose_59/perm"], "attr": {"T": {"type": "DT_FLOAT"}, "Tperm": {"type": "DT_INT32"}}}, {"name": "StatefulPartitionedCall/model_1/cq_t2010v2_1/stack_6", "op": "Pack", "input": ["StatefulPartitionedCall/model_1/cq_t2010v2_1/transpose_50", "StatefulPartitionedCall/model_1/cq_t2010v2_1/Neg_6"], "attr": {"axis": {"i": "-1"}, "T": {"type": "DT_FLOAT"}, "N": {"i": "2"}}}, {"name": "StatefulPartitionedCall/model_1/cq_t2010v2_1/conv1d_23/ExpandDims", "op": "ExpandDims", "input": ["StatefulPartitionedCall/model_1/cq_t2010v2_1/transpose_62", "StatefulPartitionedCall/model_1/cq_t2010v2_1/conv1d_23/ExpandDims/dim"], "attr": {"T": {"type": "DT_FLOAT"}, "Tdim": {"type": "DT_INT32"}}}, {"name": "StatefulPartitionedCall/model_1/cq_t2010v2_1/conv1d_21/ExpandDims", "op": "ExpandDims", "input": ["StatefulPartitionedCall/model_1/cq_t2010v2_1/transpose_56", "StatefulPartitionedCall/model_1/cq_t2010v2_1/conv1d_21/ExpandDims/dim"], "attr": {"Tdim": {"type": "DT_INT32"}, "T": {"type": "DT_FLOAT"}}}, {"name": "StatefulPartitionedCall/model_1/cq_t2010v2_1/conv1d_22/ExpandDims", "op": "ExpandDims", "input": ["StatefulPartitionedCall/model_1/cq_t2010v2_1/transpose_59", "StatefulPartitionedCall/model_1/cq_t2010v2_1/conv1d_22/ExpandDims/dim"], "attr": {"T": {"type": "DT_FLOAT"}, "Tdim": {"type": "DT_INT32"}}}, {"name": "StatefulPartitionedCall/model_1/cq_t2010v2_1/conv1d_23", "op": "Conv2D", "input": ["StatefulPartitionedCall/model_1/cq_t2010v2_1/conv1d_23/ExpandDims", "StatefulPartitionedCall/model_1/cq_t2010v2_1/conv1d_23/ExpandDims_1"], "device": "/device:CPU:0", "attr": {"explicit_paddings": {"list": {}}, "T": {"type": "DT_FLOAT"}, "dilations": {"list": {"i": ["1", "1", "1", "1"]}}, "padding": {"s": "VkFMSUQ="}, "use_cudnn_on_gpu": {"b": true}, "data_format": {"s": "TkhXQw=="}, "strides": {"list": {"i": ["1", "1", "2", "1"]}}}}, {"name": "StatefulPartitionedCall/model_1/cq_t2010v2_1/conv1d_21", "op": "Conv2D", "input": ["StatefulPartitionedCall/model_1/cq_t2010v2_1/conv1d_21/ExpandDims", "StatefulPartitionedCall/model_1/cq_t2010v2_1/conv1d_21/ExpandDims_1"], "device": "/device:CPU:0", "attr": {"data_format": {"s": "TkhXQw=="}, "dilations": {"list": {"i": ["1", "1", "1", "1"]}}, "strides": {"list": {"i": ["1", "1", "2", "1"]}}, "T": {"type": "DT_FLOAT"}, "padding": {"s": "VkFMSUQ="}, "explicit_paddings": {"list": {}}, "use_cudnn_on_gpu": {"b": true}}}, {"name": "StatefulPartitionedCall/model_1/cq_t2010v2_1/conv1d_22", "op": "Conv2D", "input": ["StatefulPartitionedCall/model_1/cq_t2010v2_1/conv1d_22/ExpandDims", "StatefulPartitionedCall/model_1/cq_t2010v2_1/conv1d_22/ExpandDims_1"], "device": "/device:CPU:0", "attr": {"use_cudnn_on_gpu": {"b": true}, "data_format": {"s": "TkhXQw=="}, "dilations": {"list": {"i": ["1", "1", "1", "1"]}}, "T": {"type": "DT_FLOAT"}, "explicit_paddings": {"list": {}}, "strides": {"list": {"i": ["1", "1", "2", "1"]}}, "padding": {"s": "VkFMSUQ="}}}, {"name": "StatefulPartitionedCall/model_1/cq_t2010v2_1/conv1d_23/Squeeze", "op": "Squeeze", "input": ["StatefulPartitionedCall/model_1/cq_t2010v2_1/conv1d_23"], "attr": {"squeeze_dims": {"list": {"i": ["-3"]}}, "T": {"type": "DT_FLOAT"}}}, {"name": "StatefulPartitionedCall/model_1/cq_t2010v2_1/conv1d_21/Squeeze", "op": "Squeeze", "input": ["StatefulPartitionedCall/model_1/cq_t2010v2_1/conv1d_21"], "attr": {"T": {"type": "DT_FLOAT"}, "squeeze_dims": {"list": {"i": ["-3"]}}}}, {"name": "StatefulPartitionedCall/model_1/cq_t2010v2_1/conv1d_22/Squeeze", "op": "Squeeze", "input": ["StatefulPartitionedCall/model_1/cq_t2010v2_1/conv1d_22"], "attr": {"squeeze_dims": {"list": {"i": ["-3"]}}, "T": {"type": "DT_FLOAT"}}}, {"name": "StatefulPartitionedCall/model_1/cq_t2010v2_1/transpose_63", "op": "Transpose", "input": ["StatefulPartitionedCall/model_1/cq_t2010v2_1/conv1d_23/Squeeze", "StatefulPartitionedCall/model_1/cq_t2010v2_1/transpose_63/perm"], "attr": {"Tperm": {"type": "DT_INT32"}, "T": {"type": "DT_FLOAT"}}}, {"name": "StatefulPartitionedCall/model_1/cq_t2010v2_1/transpose_58", "op": "Transpose", "input": ["StatefulPartitionedCall/model_1/cq_t2010v2_1/conv1d_21/Squeeze", "StatefulPartitionedCall/model_1/cq_t2010v2_1/transpose_58/perm"], "attr": {"Tperm": {"type": "DT_INT32"}, "T": {"type": "DT_FLOAT"}}}, {"name": "StatefulPartitionedCall/model_1/cq_t2010v2_1/transpose_61", "op": "Transpose", "input": ["StatefulPartitionedCall/model_1/cq_t2010v2_1/conv1d_22/Squeeze", "StatefulPartitionedCall/model_1/cq_t2010v2_1/transpose_61/perm"], "attr": {"T": {"type": "DT_FLOAT"}, "Tperm": {"type": "DT_INT32"}}}, {"name": "StatefulPartitionedCall/model_1/cq_t2010v2_1/reflection_pad1d/MirrorPad_8", "op": "MirrorPad", "input": ["StatefulPartitionedCall/model_1/cq_t2010v2_1/transpose_63", "StatefulPartitionedCall/model_1/cq_t2010v2_1/reflection_pad1d/MirrorPad_8/paddings"], "attr": {"Tpaddings": {"type": "DT_INT32"}, "mode": {"s": "UkVGTEVDVA=="}, "T": {"type": "DT_FLOAT"}}}, {"name": "StatefulPartitionedCall/model_1/cq_t2010v2_1/Neg_7", "op": "Neg", "input": ["StatefulPartitionedCall/model_1/cq_t2010v2_1/transpose_61"], "attr": {"T": {"type": "DT_FLOAT"}}}, {"name": "StatefulPartitionedCall/model_1/cq_t2010v2_1/transpose_64", "op": "Transpose", "input": ["StatefulPartitionedCall/model_1/cq_t2010v2_1/reflection_pad1d/MirrorPad_8", "StatefulPartitionedCall/model_1/cq_t2010v2_1/transpose_64/perm"], "attr": {"Tperm": {"type": "DT_INT32"}, "T": {"type": "DT_FLOAT"}}}, {"name": "StatefulPartitionedCall/model_1/cq_t2010v2_1/transpose_67", "op": "Transpose", "input": ["StatefulPartitionedCall/model_1/cq_t2010v2_1/reflection_pad1d/MirrorPad_8", "StatefulPartitionedCall/model_1/cq_t2010v2_1/transpose_67/perm"], "attr": {"T": {"type": "DT_FLOAT"}, "Tperm": {"type": "DT_INT32"}}}, {"name": "StatefulPartitionedCall/model_1/cq_t2010v2_1/stack_7", "op": "Pack", "input": ["StatefulPartitionedCall/model_1/cq_t2010v2_1/transpose_58", "StatefulPartitionedCall/model_1/cq_t2010v2_1/Neg_7"], "attr": {"N": {"i": "2"}, "T": {"type": "DT_FLOAT"}, "axis": {"i": "-1"}}}, {"name": "StatefulPartitionedCall/model_1/cq_t2010v2_1/conv1d_24/ExpandDims", "op": "ExpandDims", "input": ["StatefulPartitionedCall/model_1/cq_t2010v2_1/transpose_64", "StatefulPartitionedCall/model_1/cq_t2010v2_1/conv1d_24/ExpandDims/dim"], "attr": {"Tdim": {"type": "DT_INT32"}, "T": {"type": "DT_FLOAT"}}}, {"name": "StatefulPartitionedCall/model_1/cq_t2010v2_1/conv1d_25/ExpandDims", "op": "ExpandDims", "input": ["StatefulPartitionedCall/model_1/cq_t2010v2_1/transpose_67", "StatefulPartitionedCall/model_1/cq_t2010v2_1/conv1d_25/ExpandDims/dim"], "attr": {"Tdim": {"type": "DT_INT32"}, "T": {"type": "DT_FLOAT"}}}, {"name": "StatefulPartitionedCall/model_1/cq_t2010v2_1/conv1d_24", "op": "Conv2D", "input": ["StatefulPartitionedCall/model_1/cq_t2010v2_1/conv1d_24/ExpandDims", "StatefulPartitionedCall/model_1/cq_t2010v2_1/conv1d_24/ExpandDims_1"], "device": "/device:CPU:0", "attr": {"strides": {"list": {"i": ["1", "1", "1", "1"]}}, "dilations": {"list": {"i": ["1", "1", "1", "1"]}}, "use_cudnn_on_gpu": {"b": true}, "data_format": {"s": "TkhXQw=="}, "padding": {"s": "VkFMSUQ="}, "explicit_paddings": {"list": {}}, "T": {"type": "DT_FLOAT"}}}, {"name": "StatefulPartitionedCall/model_1/cq_t2010v2_1/conv1d_25", "op": "Conv2D", "input": ["StatefulPartitionedCall/model_1/cq_t2010v2_1/conv1d_25/ExpandDims", "StatefulPartitionedCall/model_1/cq_t2010v2_1/conv1d_25/ExpandDims_1"], "device": "/device:CPU:0", "attr": {"data_format": {"s": "TkhXQw=="}, "dilations": {"list": {"i": ["1", "1", "1", "1"]}}, "explicit_paddings": {"list": {}}, "T": {"type": "DT_FLOAT"}, "padding": {"s": "VkFMSUQ="}, "strides": {"list": {"i": ["1", "1", "1", "1"]}}, "use_cudnn_on_gpu": {"b": true}}}, {"name": "StatefulPartitionedCall/model_1/cq_t2010v2_1/conv1d_24/Squeeze", "op": "Squeeze", "input": ["StatefulPartitionedCall/model_1/cq_t2010v2_1/conv1d_24"], "attr": {"T": {"type": "DT_FLOAT"}, "squeeze_dims": {"list": {"i": ["-3"]}}}}, {"name": "StatefulPartitionedCall/model_1/cq_t2010v2_1/conv1d_25/Squeeze", "op": "Squeeze", "input": ["StatefulPartitionedCall/model_1/cq_t2010v2_1/conv1d_25"], "attr": {"squeeze_dims": {"list": {"i": ["-3"]}}, "T": {"type": "DT_FLOAT"}}}, {"name": "StatefulPartitionedCall/model_1/cq_t2010v2_1/transpose_66", "op": "Transpose", "input": ["StatefulPartitionedCall/model_1/cq_t2010v2_1/conv1d_24/Squeeze", "StatefulPartitionedCall/model_1/cq_t2010v2_1/transpose_66/perm"], "attr": {"T": {"type": "DT_FLOAT"}, "Tperm": {"type": "DT_INT32"}}}, {"name": "StatefulPartitionedCall/model_1/cq_t2010v2_1/transpose_69", "op": "Transpose", "input": ["StatefulPartitionedCall/model_1/cq_t2010v2_1/conv1d_25/Squeeze", "StatefulPartitionedCall/model_1/cq_t2010v2_1/transpose_69/perm"], "attr": {"T": {"type": "DT_FLOAT"}, "Tperm": {"type": "DT_INT32"}}}, {"name": "StatefulPartitionedCall/model_1/cq_t2010v2_1/Neg_8", "op": "Neg", "input": ["StatefulPartitionedCall/model_1/cq_t2010v2_1/transpose_69"], "attr": {"T": {"type": "DT_FLOAT"}}}, {"name": "StatefulPartitionedCall/model_1/cq_t2010v2_1/stack_8", "op": "Pack", "input": ["StatefulPartitionedCall/model_1/cq_t2010v2_1/transpose_66", "StatefulPartitionedCall/model_1/cq_t2010v2_1/Neg_8"], "attr": {"T": {"type": "DT_FLOAT"}, "axis": {"i": "-1"}, "N": {"i": "2"}}}, {"name": "StatefulPartitionedCall/model_1/cq_t2010v2_1/concat_7", "op": "ConcatV2", "input": ["StatefulPartitionedCall/model_1/cq_t2010v2_1/stack_8", "StatefulPartitionedCall/model_1/cq_t2010v2_1/stack_7", "StatefulPartitionedCall/model_1/cq_t2010v2_1/stack_6", "StatefulPartitionedCall/model_1/cq_t2010v2_1/stack_5", "StatefulPartitionedCall/model_1/cq_t2010v2_1/stack_4", "StatefulPartitionedCall/model_1/cq_t2010v2_1/stack_3", "StatefulPartitionedCall/model_1/cq_t2010v2_1/stack_2", "StatefulPartitionedCall/model_1/cq_t2010v2_1/stack_1", "StatefulPartitionedCall/model_1/cq_t2010v2_1/stack", "StatefulPartitionedCall/model_1/cq_t2010v2_1/concat_7/axis"], "attr": {"Tidx": {"type": "DT_INT32"}, "N": {"i": "9"}, "T": {"type": "DT_FLOAT"}}}, {"name": "StatefulPartitionedCall/model_1/cq_t2010v2_1/strided_slice_9", "op": "StridedSlice", "input": ["StatefulPartitionedCall/model_1/cq_t2010v2_1/concat_7", "StatefulPartitionedCall/model_1/cq_t2010v2_1/strided_slice_9/stack", "StatefulPartitionedCall/model_1/cq_t2010v2_1/strided_slice_9/stack_1", "StatefulPartitionedCall/model_1/cq_t2010v2_1/strided_slice_9/stack_2"], "attr": {"Index": {"type": "DT_INT32"}, "shrink_axis_mask": {"i": "0"}, "new_axis_mask": {"i": "0"}, "T": {"type": "DT_FLOAT"}, "end_mask": {"i": "7"}, "ellipsis_mask": {"i": "0"}, "begin_mask": {"i": "5"}}}, {"name": "StatefulPartitionedCall/model_1/cq_t2010v2_1/mul_1", "op": "Mul", "input": ["StatefulPartitionedCall/model_1/cq_t2010v2_1/strided_slice_9", "StatefulPartitionedCall/model_1/cq_t2010v2_1/Sqrt"], "attr": {"T": {"type": "DT_FLOAT"}}}, {"name": "StatefulPartitionedCall/model_1/cq_t2010v2_1/Pow", "op": "Square", "input": ["StatefulPartitionedCall/model_1/cq_t2010v2_1/mul_1"], "attr": {"T": {"type": "DT_FLOAT"}}}, {"name": "StatefulPartitionedCall/model_1/cq_t2010v2_1/Sum", "op": "Sum", "input": ["StatefulPartitionedCall/model_1/cq_t2010v2_1/Pow", "StatefulPartitionedCall/model_1/cq_t2010v2_1/Sum/reduction_indices"], "attr": {"T": {"type": "DT_FLOAT"}, "keep_dims": {"b": false}, "Tidx": {"type": "DT_INT32"}}}, {"name": "StatefulPartitionedCall/model_1/cq_t2010v2_1/Sqrt_1", "op": "Sqrt", "input": ["StatefulPartitionedCall/model_1/cq_t2010v2_1/Sum"], "attr": {"T": {"type": "DT_FLOAT"}}}, {"name": "StatefulPartitionedCall/model_1/cq_t2010v2_1/transpose_70", "op": "Transpose", "input": ["StatefulPartitionedCall/model_1/cq_t2010v2_1/Sqrt_1", "StatefulPartitionedCall/model_1/cq_t2010v2_1/transpose_70/perm"], "attr": {"T": {"type": "DT_FLOAT"}, "Tperm": {"type": "DT_INT32"}}}, {"name": "StatefulPartitionedCall/model_1/normalized_log_1/Square", "op": "Square", "input": ["StatefulPartitionedCall/model_1/cq_t2010v2_1/transpose_70"], "attr": {"T": {"type": "DT_FLOAT"}}}, {"name": "StatefulPartitionedCall/model_1/normalized_log_1/Shape", "op": "Shape", "input": ["StatefulPartitionedCall/model_1/cq_t2010v2_1/transpose_70"], "attr": {"out_type": {"type": "DT_INT32"}, "T": {"type": "DT_FLOAT"}}}, {"name": "StatefulPartitionedCall/model_1/normalized_log_1/Shape_1", "op": "Shape", "input": ["StatefulPartitionedCall/model_1/cq_t2010v2_1/transpose_70"], "attr": {"T": {"type": "DT_FLOAT"}, "out_type": {"type": "DT_INT32"}}}, {"name": "StatefulPartitionedCall/model_1/normalized_log_1/add", "op": "AddV2", "input": ["StatefulPartitionedCall/model_1/normalized_log_1/Square", "StatefulPartitionedCall/model_1/normalized_log_1/add/y"], "attr": {"T": {"type": "DT_FLOAT"}}}, {"name": "StatefulPartitionedCall/model_1/normalized_log_1/strided_slice", "op": "StridedSlice", "input": ["StatefulPartitionedCall/model_1/normalized_log_1/Shape", "StatefulPartitionedCall/model_1/normalized_log_1/strided_slice/stack", "StatefulPartitionedCall/model_1/normalized_log_1/strided_slice/stack_1", "StatefulPartitionedCall/model_1/normalized_log_1/strided_slice/stack_2"], "attr": {"Index": {"type": "DT_INT32"}, "end_mask": {"i": "0"}, "T": {"type": "DT_INT32"}, "begin_mask": {"i": "0"}, "new_axis_mask": {"i": "0"}, "shrink_axis_mask": {"i": "1"}, "ellipsis_mask": {"i": "0"}}}, {"name": "StatefulPartitionedCall/model_1/normalized_log_1/strided_slice_1", "op": "StridedSlice", "input": ["StatefulPartitionedCall/model_1/normalized_log_1/Shape_1", "StatefulPartitionedCall/model_1/normalized_log_1/strided_slice_1/stack", "StatefulPartitionedCall/model_1/normalized_log_1/strided_slice_1/stack_1", "StatefulPartitionedCall/model_1/normalized_log_1/strided_slice_1/stack_2"], "attr": {"ellipsis_mask": {"i": "0"}, "Index": {"type": "DT_INT32"}, "new_axis_mask": {"i": "0"}, "begin_mask": {"i": "0"}, "T": {"type": "DT_INT32"}, "shrink_axis_mask": {"i": "1"}, "end_mask": {"i": "0"}}}, {"name": "StatefulPartitionedCall/model_1/normalized_log_1/Log", "op": "Log", "input": ["StatefulPartitionedCall/model_1/normalized_log_1/add"], "attr": {"T": {"type": "DT_FLOAT"}}}, {"name": "StatefulPartitionedCall/model_1/normalized_log_1/Reshape/shape", "op": "Pack", "input": ["StatefulPartitionedCall/model_1/normalized_log_1/strided_slice", "StatefulPartitionedCall/model_1/normalized_log_1/Reshape/shape/1", "StatefulPartitionedCall/model_1/normalized_log_1/Reshape/shape/2"], "attr": {"T": {"type": "DT_INT32"}, "axis": {"i": "0"}, "N": {"i": "3"}}}, {"name": "StatefulPartitionedCall/model_1/normalized_log_1/Reshape_1/shape", "op": "Pack", "input": ["StatefulPartitionedCall/model_1/normalized_log_1/strided_slice_1", "StatefulPartitionedCall/model_1/normalized_log_1/Reshape_1/shape/1", "StatefulPartitionedCall/model_1/normalized_log_1/Reshape_1/shape/2"], "attr": {"N": {"i": "3"}, "T": {"type": "DT_INT32"}, "axis": {"i": "0"}}}, {"name": "StatefulPartitionedCall/model_1/normalized_log_1/mul", "op": "Mul", "input": ["StatefulPartitionedCall/model_1/normalized_log_1/Log", "StatefulPartitionedCall/model_1/normalized_log_1/truediv"], "attr": {"T": {"type": "DT_FLOAT"}}}, {"name": "StatefulPartitionedCall/model_1/normalized_log_1/Min", "op": "Min", "input": ["StatefulPartitionedCall/model_1/normalized_log_1/mul", "StatefulPartitionedCall/model_1/normalized_log_1/Min/reduction_indices"], "attr": {"keep_dims": {"b": false}, "T": {"type": "DT_FLOAT"}, "Tidx": {"type": "DT_INT32"}}}, {"name": "StatefulPartitionedCall/model_1/normalized_log_1/Reshape", "op": "Reshape", "input": ["StatefulPartitionedCall/model_1/normalized_log_1/Min", "StatefulPartitionedCall/model_1/normalized_log_1/Reshape/shape"], "attr": {"Tshape": {"type": "DT_INT32"}, "T": {"type": "DT_FLOAT"}}}, {"name": "StatefulPartitionedCall/model_1/normalized_log_1/sub", "op": "Sub", "input": ["StatefulPartitionedCall/model_1/normalized_log_1/mul", "StatefulPartitionedCall/model_1/normalized_log_1/Reshape"], "attr": {"T": {"type": "DT_FLOAT"}}}, {"name": "StatefulPartitionedCall/model_1/normalized_log_1/Max", "op": "Max", "input": ["StatefulPartitionedCall/model_1/normalized_log_1/sub", "StatefulPartitionedCall/model_1/normalized_log_1/Max/reduction_indices"], "attr": {"keep_dims": {"b": false}, "T": {"type": "DT_FLOAT"}, "Tidx": {"type": "DT_INT32"}}}, {"name": "StatefulPartitionedCall/model_1/normalized_log_1/Reshape_1", "op": "Reshape", "input": ["StatefulPartitionedCall/model_1/normalized_log_1/Max", "StatefulPartitionedCall/model_1/normalized_log_1/Reshape_1/shape"], "attr": {"T": {"type": "DT_FLOAT"}, "Tshape": {"type": "DT_INT32"}}}, {"name": "StatefulPartitionedCall/model_1/normalized_log_1/div_no_nan", "op": "DivNoNan", "input": ["StatefulPartitionedCall/model_1/normalized_log_1/sub", "StatefulPartitionedCall/model_1/normalized_log_1/Reshape_1"], "attr": {"T": {"type": "DT_FLOAT"}}}, {"name": "StatefulPartitionedCall/model_1/tf.expand_dims_1/ExpandDims", "op": "ExpandDims", "input": ["StatefulPartitionedCall/model_1/normalized_log_1/div_no_nan", "StatefulPartitionedCall/model_1/tf.expand_dims_1/ExpandDims/dim"], "attr": {"T": {"type": "DT_FLOAT"}, "Tdim": {"type": "DT_INT32"}}}, {"name": "StatefulPartitionedCall/model_1/batch_normalization/FusedBatchNormV3/Mul", "op": "Mul", "input": ["StatefulPartitionedCall/model_1/tf.expand_dims_1/ExpandDims", "StatefulPartitionedCall/model_1/batch_normalization/FusedBatchNormV3/Scaled"], "attr": {"T": {"type": "DT_FLOAT"}}}, {"name": "StatefulPartitionedCall/model_1/batch_normalization/FusedBatchNormV3", "op": "Add", "input": ["StatefulPartitionedCall/model_1/batch_normalization/FusedBatchNormV3/Mul", "StatefulPartitionedCall/model_1/batch_normalization/FusedBatchNormV3/Offset"], "attr": {"T": {"type": "DT_FLOAT"}}}, {"name": "StatefulPartitionedCall/model_1/harmonic_stacking/strided_slice", "op": "StridedSlice", "input": ["StatefulPartitionedCall/model_1/batch_normalization/FusedBatchNormV3", "StatefulPartitionedCall/model_1/harmonic_stacking/strided_slice/stack", "StatefulPartitionedCall/model_1/harmonic_stacking/strided_slice/stack_1", "StatefulPartitionedCall/model_1/harmonic_stacking/strided_slice/stack_2"], "attr": {"new_axis_mask": {"i": "0"}, "Index": {"type": "DT_INT32"}, "shrink_axis_mask": {"i": "0"}, "T": {"type": "DT_FLOAT"}, "end_mask": {"i": "11"}, "begin_mask": {"i": "15"}, "ellipsis_mask": {"i": "0"}}}, {"name": "StatefulPartitionedCall/model_1/harmonic_stacking/strided_slice_1", "op": "StridedSlice", "input": ["StatefulPartitionedCall/model_1/batch_normalization/FusedBatchNormV3", "StatefulPartitionedCall/model_1/harmonic_stacking/strided_slice_1/stack", "StatefulPartitionedCall/model_1/harmonic_stacking/strided_slice_1/stack_1", "StatefulPartitionedCall/model_1/harmonic_stacking/strided_slice_1/stack_2"], "attr": {"begin_mask": {"i": "11"}, "Index": {"type": "DT_INT32"}, "new_axis_mask": {"i": "0"}, "ellipsis_mask": {"i": "0"}, "shrink_axis_mask": {"i": "0"}, "end_mask": {"i": "15"}, "T": {"type": "DT_FLOAT"}}}, {"name": "StatefulPartitionedCall/model_1/harmonic_stacking/strided_slice_2", "op": "StridedSlice", "input": ["StatefulPartitionedCall/model_1/batch_normalization/FusedBatchNormV3", "StatefulPartitionedCall/model_1/harmonic_stacking/strided_slice_2/stack", "StatefulPartitionedCall/model_1/harmonic_stacking/strided_slice_2/stack_1", "StatefulPartitionedCall/model_1/harmonic_stacking/strided_slice_2/stack_2"], "attr": {"new_axis_mask": {"i": "0"}, "end_mask": {"i": "15"}, "Index": {"type": "DT_INT32"}, "ellipsis_mask": {"i": "0"}, "shrink_axis_mask": {"i": "0"}, "begin_mask": {"i": "11"}, "T": {"type": "DT_FLOAT"}}}, {"name": "StatefulPartitionedCall/model_1/harmonic_stacking/strided_slice_3", "op": "StridedSlice", "input": ["StatefulPartitionedCall/model_1/batch_normalization/FusedBatchNormV3", "StatefulPartitionedCall/model_1/harmonic_stacking/strided_slice_3/stack", "StatefulPartitionedCall/model_1/harmonic_stacking/strided_slice_3/stack_1", "StatefulPartitionedCall/model_1/harmonic_stacking/strided_slice_3/stack_2"], "attr": {"end_mask": {"i": "15"}, "ellipsis_mask": {"i": "0"}, "shrink_axis_mask": {"i": "0"}, "begin_mask": {"i": "11"}, "new_axis_mask": {"i": "0"}, "Index": {"type": "DT_INT32"}, "T": {"type": "DT_FLOAT"}}}, {"name": "StatefulPartitionedCall/model_1/harmonic_stacking/strided_slice_4", "op": "StridedSlice", "input": ["StatefulPartitionedCall/model_1/batch_normalization/FusedBatchNormV3", "StatefulPartitionedCall/model_1/harmonic_stacking/strided_slice_4/stack", "StatefulPartitionedCall/model_1/harmonic_stacking/strided_slice_4/stack_1", "StatefulPartitionedCall/model_1/harmonic_stacking/strided_slice_4/stack_2"], "attr": {"T": {"type": "DT_FLOAT"}, "end_mask": {"i": "15"}, "Index": {"type": "DT_INT32"}, "begin_mask": {"i": "11"}, "new_axis_mask": {"i": "0"}, "ellipsis_mask": {"i": "0"}, "shrink_axis_mask": {"i": "0"}}}, {"name": "StatefulPartitionedCall/model_1/harmonic_stacking/strided_slice_5", "op": "StridedSlice", "input": ["StatefulPartitionedCall/model_1/batch_normalization/FusedBatchNormV3", "StatefulPartitionedCall/model_1/harmonic_stacking/strided_slice_5/stack", "StatefulPartitionedCall/model_1/harmonic_stacking/strided_slice_5/stack_1", "StatefulPartitionedCall/model_1/harmonic_stacking/strided_slice_5/stack_2"], "attr": {"Index": {"type": "DT_INT32"}, "shrink_axis_mask": {"i": "0"}, "new_axis_mask": {"i": "0"}, "T": {"type": "DT_FLOAT"}, "begin_mask": {"i": "11"}, "ellipsis_mask": {"i": "0"}, "end_mask": {"i": "15"}}}, {"name": "StatefulPartitionedCall/model_1/harmonic_stacking/strided_slice_6", "op": "StridedSlice", "input": ["StatefulPartitionedCall/model_1/batch_normalization/FusedBatchNormV3", "StatefulPartitionedCall/model_1/harmonic_stacking/strided_slice_6/stack", "StatefulPartitionedCall/model_1/harmonic_stacking/strided_slice_6/stack_1", "StatefulPartitionedCall/model_1/harmonic_stacking/strided_slice_6/stack_2"], "attr": {"T": {"type": "DT_FLOAT"}, "end_mask": {"i": "15"}, "Index": {"type": "DT_INT32"}, "begin_mask": {"i": "11"}, "new_axis_mask": {"i": "0"}, "shrink_axis_mask": {"i": "0"}, "ellipsis_mask": {"i": "0"}}}, {"name": "StatefulPartitionedCall/model_1/harmonic-stacking-diff/strided_slice", "op": "StridedSlice", "input": ["StatefulPartitionedCall/model_1/batch_normalization/FusedBatchNormV3", "StatefulPartitionedCall/model_1/harmonic-stacking-diff/strided_slice/stack", "StatefulPartitionedCall/model_1/harmonic-stacking-diff/strided_slice/stack_1", "StatefulPartitionedCall/model_1/harmonic-stacking-diff/strided_slice/stack_2"], "attr": {"end_mask": {"i": "11"}, "shrink_axis_mask": {"i": "0"}, "ellipsis_mask": {"i": "0"}, "Index": {"type": "DT_INT32"}, "new_axis_mask": {"i": "0"}, "begin_mask": {"i": "15"}, "T": {"type": "DT_FLOAT"}}}, {"name": "StatefulPartitionedCall/model_1/harmonic-stacking-diff/strided_slice_1", "op": "StridedSlice", "input": ["StatefulPartitionedCall/model_1/batch_normalization/FusedBatchNormV3", "StatefulPartitionedCall/model_1/harmonic-stacking-diff/strided_slice_1/stack", "StatefulPartitionedCall/model_1/harmonic-stacking-diff/strided_slice_1/stack_1", "StatefulPartitionedCall/model_1/harmonic-stacking-diff/strided_slice_1/stack_2"], "attr": {"T": {"type": "DT_FLOAT"}, "ellipsis_mask": {"i": "0"}, "new_axis_mask": {"i": "0"}, "end_mask": {"i": "15"}, "shrink_axis_mask": {"i": "0"}, "Index": {"type": "DT_INT32"}, "begin_mask": {"i": "11"}}}, {"name": "StatefulPartitionedCall/model_1/harmonic-stacking-diff/strided_slice_2", "op": "StridedSlice", "input": ["StatefulPartitionedCall/model_1/batch_normalization/FusedBatchNormV3", "StatefulPartitionedCall/model_1/harmonic-stacking-diff/strided_slice_2/stack", "StatefulPartitionedCall/model_1/harmonic-stacking-diff/strided_slice_2/stack_1", "StatefulPartitionedCall/model_1/harmonic-stacking-diff/strided_slice_2/stack_2"], "attr": {"Index": {"type": "DT_INT32"}, "begin_mask": {"i": "11"}, "new_axis_mask": {"i": "0"}, "shrink_axis_mask": {"i": "0"}, "end_mask": {"i": "15"}, "T": {"type": "DT_FLOAT"}, "ellipsis_mask": {"i": "0"}}}, {"name": "StatefulPartitionedCall/model_1/harmonic-stacking-diff/strided_slice_3", "op": "StridedSlice", "input": ["StatefulPartitionedCall/model_1/batch_normalization/FusedBatchNormV3", "StatefulPartitionedCall/model_1/harmonic-stacking-diff/strided_slice_3/stack", "StatefulPartitionedCall/model_1/harmonic-stacking-diff/strided_slice_3/stack_1", "StatefulPartitionedCall/model_1/harmonic-stacking-diff/strided_slice_3/stack_2"], "attr": {"shrink_axis_mask": {"i": "0"}, "end_mask": {"i": "15"}, "ellipsis_mask": {"i": "0"}, "new_axis_mask": {"i": "0"}, "begin_mask": {"i": "11"}, "Index": {"type": "DT_INT32"}, "T": {"type": "DT_FLOAT"}}}, {"name": "StatefulPartitionedCall/model_1/harmonic-stacking-diff/strided_slice_4", "op": "StridedSlice", "input": ["StatefulPartitionedCall/model_1/batch_normalization/FusedBatchNormV3", "StatefulPartitionedCall/model_1/harmonic-stacking-diff/strided_slice_4/stack", "StatefulPartitionedCall/model_1/harmonic-stacking-diff/strided_slice_4/stack_1", "StatefulPartitionedCall/model_1/harmonic-stacking-diff/strided_slice_4/stack_2"], "attr": {"Index": {"type": "DT_INT32"}, "begin_mask": {"i": "11"}, "new_axis_mask": {"i": "0"}, "shrink_axis_mask": {"i": "0"}, "T": {"type": "DT_FLOAT"}, "ellipsis_mask": {"i": "0"}, "end_mask": {"i": "15"}}}, {"name": "StatefulPartitionedCall/model_1/harmonic-stacking-diff/strided_slice_5", "op": "StridedSlice", "input": ["StatefulPartitionedCall/model_1/batch_normalization/FusedBatchNormV3", "StatefulPartitionedCall/model_1/harmonic-stacking-diff/strided_slice_5/stack", "StatefulPartitionedCall/model_1/harmonic-stacking-diff/strided_slice_5/stack_1", "StatefulPartitionedCall/model_1/harmonic-stacking-diff/strided_slice_5/stack_2"], "attr": {"Index": {"type": "DT_INT32"}, "end_mask": {"i": "15"}, "T": {"type": "DT_FLOAT"}, "begin_mask": {"i": "11"}, "ellipsis_mask": {"i": "0"}, "shrink_axis_mask": {"i": "0"}, "new_axis_mask": {"i": "0"}}}, {"name": "StatefulPartitionedCall/model_1/harmonic-stacking-diff/strided_slice_6", "op": "StridedSlice", "input": ["StatefulPartitionedCall/model_1/batch_normalization/FusedBatchNormV3", "StatefulPartitionedCall/model_1/harmonic-stacking-diff/strided_slice_6/stack", "StatefulPartitionedCall/model_1/harmonic-stacking-diff/strided_slice_6/stack_1", "StatefulPartitionedCall/model_1/harmonic-stacking-diff/strided_slice_6/stack_2"], "attr": {"shrink_axis_mask": {"i": "0"}, "end_mask": {"i": "15"}, "ellipsis_mask": {"i": "0"}, "begin_mask": {"i": "11"}, "Index": {"type": "DT_INT32"}, "T": {"type": "DT_FLOAT"}, "new_axis_mask": {"i": "0"}}}, {"name": "StatefulPartitionedCall/model_1/harmonic_stacking/Pad", "op": "Pad", "input": ["StatefulPartitionedCall/model_1/harmonic_stacking/strided_slice", "StatefulPartitionedCall/model_1/harmonic_stacking/Const"], "attr": {"T": {"type": "DT_FLOAT"}, "Tpaddings": {"type": "DT_INT32"}}}, {"name": "StatefulPartitionedCall/model_1/harmonic_stacking/Pad_1", "op": "Pad", "input": ["StatefulPartitionedCall/model_1/harmonic_stacking/strided_slice_1", "StatefulPartitionedCall/model_1/harmonic_stacking/Const_1"], "attr": {"T": {"type": "DT_FLOAT"}, "Tpaddings": {"type": "DT_INT32"}}}, {"name": "StatefulPartitionedCall/model_1/harmonic_stacking/Pad_2", "op": "Pad", "input": ["StatefulPartitionedCall/model_1/harmonic_stacking/strided_slice_2", "StatefulPartitionedCall/model_1/harmonic_stacking/Const_2"], "attr": {"T": {"type": "DT_FLOAT"}, "Tpaddings": {"type": "DT_INT32"}}}, {"name": "StatefulPartitionedCall/model_1/harmonic_stacking/Pad_3", "op": "Pad", "input": ["StatefulPartitionedCall/model_1/harmonic_stacking/strided_slice_3", "StatefulPartitionedCall/model_1/harmonic_stacking/Const_3"], "attr": {"T": {"type": "DT_FLOAT"}, "Tpaddings": {"type": "DT_INT32"}}}, {"name": "StatefulPartitionedCall/model_1/harmonic_stacking/Pad_4", "op": "Pad", "input": ["StatefulPartitionedCall/model_1/harmonic_stacking/strided_slice_4", "StatefulPartitionedCall/model_1/harmonic_stacking/Const_4"], "attr": {"Tpaddings": {"type": "DT_INT32"}, "T": {"type": "DT_FLOAT"}}}, {"name": "StatefulPartitionedCall/model_1/harmonic_stacking/Pad_5", "op": "Pad", "input": ["StatefulPartitionedCall/model_1/harmonic_stacking/strided_slice_5", "StatefulPartitionedCall/model_1/harmonic_stacking/Const_5"], "attr": {"T": {"type": "DT_FLOAT"}, "Tpaddings": {"type": "DT_INT32"}}}, {"name": "StatefulPartitionedCall/model_1/harmonic_stacking/Pad_6", "op": "Pad", "input": ["StatefulPartitionedCall/model_1/harmonic_stacking/strided_slice_6", "StatefulPartitionedCall/model_1/harmonic_stacking/Const_6"], "attr": {"T": {"type": "DT_FLOAT"}, "Tpaddings": {"type": "DT_INT32"}}}, {"name": "StatefulPartitionedCall/model_1/harmonic-stacking-diff/Pad", "op": "Pad", "input": ["StatefulPartitionedCall/model_1/harmonic-stacking-diff/strided_slice", "StatefulPartitionedCall/model_1/harmonic-stacking-diff/Const"], "attr": {"T": {"type": "DT_FLOAT"}, "Tpaddings": {"type": "DT_INT32"}}}, {"name": "StatefulPartitionedCall/model_1/harmonic-stacking-diff/Pad_1", "op": "Pad", "input": ["StatefulPartitionedCall/model_1/harmonic-stacking-diff/strided_slice_1", "StatefulPartitionedCall/model_1/harmonic-stacking-diff/Const_1"], "attr": {"Tpaddings": {"type": "DT_INT32"}, "T": {"type": "DT_FLOAT"}}}, {"name": "StatefulPartitionedCall/model_1/harmonic-stacking-diff/Pad_2", "op": "Pad", "input": ["StatefulPartitionedCall/model_1/harmonic-stacking-diff/strided_slice_2", "StatefulPartitionedCall/model_1/harmonic-stacking-diff/Const_2"], "attr": {"T": {"type": "DT_FLOAT"}, "Tpaddings": {"type": "DT_INT32"}}}, {"name": "StatefulPartitionedCall/model_1/harmonic-stacking-diff/Pad_3", "op": "Pad", "input": ["StatefulPartitionedCall/model_1/harmonic-stacking-diff/strided_slice_3", "StatefulPartitionedCall/model_1/harmonic-stacking-diff/Const_3"], "attr": {"Tpaddings": {"type": "DT_INT32"}, "T": {"type": "DT_FLOAT"}}}, {"name": "StatefulPartitionedCall/model_1/harmonic-stacking-diff/Pad_4", "op": "Pad", "input": ["StatefulPartitionedCall/model_1/harmonic-stacking-diff/strided_slice_4", "StatefulPartitionedCall/model_1/harmonic-stacking-diff/Const_4"], "attr": {"T": {"type": "DT_FLOAT"}, "Tpaddings": {"type": "DT_INT32"}}}, {"name": "StatefulPartitionedCall/model_1/harmonic-stacking-diff/Pad_5", "op": "Pad", "input": ["StatefulPartitionedCall/model_1/harmonic-stacking-diff/strided_slice_5", "StatefulPartitionedCall/model_1/harmonic-stacking-diff/Const_5"], "attr": {"T": {"type": "DT_FLOAT"}, "Tpaddings": {"type": "DT_INT32"}}}, {"name": "StatefulPartitionedCall/model_1/harmonic-stacking-diff/Pad_6", "op": "Pad", "input": ["StatefulPartitionedCall/model_1/harmonic-stacking-diff/strided_slice_6", "StatefulPartitionedCall/model_1/harmonic-stacking-diff/Const_6"], "attr": {"T": {"type": "DT_FLOAT"}, "Tpaddings": {"type": "DT_INT32"}}}, {"name": "StatefulPartitionedCall/model_1/harmonic_stacking/concat", "op": "ConcatV2", "input": ["StatefulPartitionedCall/model_1/harmonic_stacking/Pad", "StatefulPartitionedCall/model_1/batch_normalization/FusedBatchNormV3", "StatefulPartitionedCall/model_1/harmonic_stacking/Pad_1", "StatefulPartitionedCall/model_1/harmonic_stacking/Pad_2", "StatefulPartitionedCall/model_1/harmonic_stacking/Pad_3", "StatefulPartitionedCall/model_1/harmonic_stacking/Pad_4", "StatefulPartitionedCall/model_1/harmonic_stacking/Pad_5", "StatefulPartitionedCall/model_1/harmonic_stacking/Pad_6", "StatefulPartitionedCall/model_1/harmonic_stacking/concat/axis"], "attr": {"T": {"type": "DT_FLOAT"}, "Tidx": {"type": "DT_INT32"}, "N": {"i": "8"}}}, {"name": "StatefulPartitionedCall/model_1/harmonic-stacking-diff/concat", "op": "ConcatV2", "input": ["StatefulPartitionedCall/model_1/harmonic-stacking-diff/Pad", "StatefulPartitionedCall/model_1/batch_normalization/FusedBatchNormV3", "StatefulPartitionedCall/model_1/harmonic-stacking-diff/Pad_1", "StatefulPartitionedCall/model_1/harmonic-stacking-diff/Pad_2", "StatefulPartitionedCall/model_1/harmonic-stacking-diff/Pad_3", "StatefulPartitionedCall/model_1/harmonic-stacking-diff/Pad_4", "StatefulPartitionedCall/model_1/harmonic-stacking-diff/Pad_5", "StatefulPartitionedCall/model_1/harmonic-stacking-diff/Pad_6", "StatefulPartitionedCall/model_1/harmonic-stacking-diff/concat/axis"], "attr": {"T": {"type": "DT_FLOAT"}, "Tidx": {"type": "DT_INT32"}, "N": {"i": "8"}}}, {"name": "StatefulPartitionedCall/model_1/harmonic_stacking/strided_slice_7", "op": "StridedSlice", "input": ["StatefulPartitionedCall/model_1/harmonic_stacking/concat", "StatefulPartitionedCall/model_1/harmonic_stacking/strided_slice_7/stack", "StatefulPartitionedCall/model_1/harmonic_stacking/strided_slice_7/stack_1", "StatefulPartitionedCall/model_1/harmonic_stacking/strided_slice_7/stack_2"], "attr": {"end_mask": {"i": "11"}, "Index": {"type": "DT_INT32"}, "new_axis_mask": {"i": "0"}, "shrink_axis_mask": {"i": "0"}, "ellipsis_mask": {"i": "0"}, "begin_mask": {"i": "15"}, "T": {"type": "DT_FLOAT"}}}, {"name": "StatefulPartitionedCall/model_1/harmonic-stacking-diff/strided_slice_7", "op": "StridedSlice", "input": ["StatefulPartitionedCall/model_1/harmonic-stacking-diff/concat", "StatefulPartitionedCall/model_1/harmonic-stacking-diff/strided_slice_7/stack", "StatefulPartitionedCall/model_1/harmonic-stacking-diff/strided_slice_7/stack_1", "StatefulPartitionedCall/model_1/harmonic-stacking-diff/strided_slice_7/stack_2"], "attr": {"begin_mask": {"i": "15"}, "new_axis_mask": {"i": "0"}, "T": {"type": "DT_FLOAT"}, "ellipsis_mask": {"i": "0"}, "end_mask": {"i": "11"}, "Index": {"type": "DT_INT32"}, "shrink_axis_mask": {"i": "0"}}}, {"name": "StatefulPartitionedCall/model_1/re_lu_1/Relu", "op": "_FusedConv2D", "input": ["StatefulPartitionedCall/model_1/harmonic_stacking/strided_slice_7", "StatefulPartitionedCall/model_1/conv2d_1/Conv2D_weights", "StatefulPartitionedCall/model_1/conv2d_1/Conv2D_bn_offset"], "device": "/device:CPU:0", "attr": {"padding": {"s": "U0FNRQ=="}, "explicit_paddings": {"list": {}}, "T": {"type": "DT_FLOAT"}, "fused_ops": {"list": {"s": ["Qmlhc0FkZA==", "UmVsdQ=="]}}, "dilations": {"list": {"i": ["1", "1", "1", "1"]}}, "strides": {"list": {"i": ["1", "1", "1", "1"]}}, "use_cudnn_on_gpu": {"b": true}, "num_args": {"i": "1"}, "data_format": {"s": "TkhXQw=="}, "epsilon": {"f": 0.0}}}, {"name": "StatefulPartitionedCall/model_1/re_lu_3/Relu", "op": "_FusedConv2D", "input": ["StatefulPartitionedCall/model_1/harmonic-stacking-diff/strided_slice_7", "StatefulPartitionedCall/model_1/conv2d_4/Conv2D_weights", "StatefulPartitionedCall/model_1/conv2d_4/Conv2D_bn_offset"], "device": "/device:CPU:0", "attr": {"explicit_paddings": {"list": {}}, "padding": {"s": "U0FNRQ=="}, "use_cudnn_on_gpu": {"b": true}, "data_format": {"s": "TkhXQw=="}, "strides": {"list": {"i": ["1", "1", "3", "1"]}}, "dilations": {"list": {"i": ["1", "1", "1", "1"]}}, "epsilon": {"f": 0.0}, "T": {"type": "DT_FLOAT"}, "num_args": {"i": "1"}, "fused_ops": {"list": {"s": ["Qmlhc0FkZA==", "UmVsdQ=="]}}}}, {"name": "StatefulPartitionedCall/model_1/contours-reduced/BiasAdd", "op": "_FusedConv2D", "input": ["StatefulPartitionedCall/model_1/re_lu_1/Relu", "StatefulPartitionedCall/model_1/contours-reduced/Conv2D/ReadVariableOp", "StatefulPartitionedCall/model_1/contours-reduced/BiasAdd/ReadVariableOp"], "device": "/device:CPU:0", "attr": {"num_args": {"i": "1"}, "fused_ops": {"list": {"s": ["Qmlhc0FkZA=="]}}, "epsilon": {"f": 0.0}, "padding": {"s": "U0FNRQ=="}, "data_format": {"s": "TkhXQw=="}, "explicit_paddings": {"list": {}}, "use_cudnn_on_gpu": {"b": true}, "dilations": {"list": {"i": ["1", "1", "1", "1"]}}, "strides": {"list": {"i": ["1", "1", "1", "1"]}}, "T": {"type": "DT_FLOAT"}}}, {"name": "StatefulPartitionedCall/model_1/contours-reduced/Sigmoid", "op": "Sigmoid", "input": ["StatefulPartitionedCall/model_1/contours-reduced/BiasAdd"], "attr": {"T": {"type": "DT_FLOAT"}}}, {"name": "StatefulPartitionedCall/model_1/contour/reshape_1/Shape", "op": "Shape", "input": ["StatefulPartitionedCall/model_1/contours-reduced/Sigmoid"], "attr": {"T": {"type": "DT_FLOAT"}, "out_type": {"type": "DT_INT32"}}}, {"name": "StatefulPartitionedCall/model_1/contour/reshape_1/strided_slice", "op": "StridedSlice", "input": ["StatefulPartitionedCall/model_1/contour/reshape_1/Shape", "StatefulPartitionedCall/model_1/contour/reshape_1/strided_slice/stack", "StatefulPartitionedCall/model_1/contour/reshape_1/strided_slice/stack_1", "StatefulPartitionedCall/model_1/contour/reshape_1/strided_slice/stack_2"], "attr": {"ellipsis_mask": {"i": "0"}, "end_mask": {"i": "0"}, "shrink_axis_mask": {"i": "1"}, "T": {"type": "DT_INT32"}, "begin_mask": {"i": "0"}, "new_axis_mask": {"i": "0"}, "Index": {"type": "DT_INT32"}}}, {"name": "StatefulPartitionedCall/model_1/contour/reshape_1/Reshape/shape", "op": "Pack", "input": ["StatefulPartitionedCall/model_1/contour/reshape_1/strided_slice", "StatefulPartitionedCall/model_1/contour/reshape_1/Reshape/shape/1", "StatefulPartitionedCall/model_1/contour/reshape_1/Reshape/shape/2"], "attr": {"axis": {"i": "0"}, "N": {"i": "3"}, "T": {"type": "DT_INT32"}}}, {"name": "StatefulPartitionedCall/model_1/contour/reshape_1/Reshape", "op": "Reshape", "input": ["StatefulPartitionedCall/model_1/contours-reduced/Sigmoid", "StatefulPartitionedCall/model_1/contour/reshape_1/Reshape/shape"], "attr": {"Tshape": {"type": "DT_INT32"}, "T": {"type": "DT_FLOAT"}}}, {"name": "Identity", "op": "Identity", "input": ["StatefulPartitionedCall/model_1/contour/reshape_1/Reshape"], "attr": {"T": {"type": "DT_FLOAT"}}}, {"name": "StatefulPartitionedCall/model_1/tf.expand_dims_2/ExpandDims", "op": "ExpandDims", "input": ["StatefulPartitionedCall/model_1/contour/reshape_1/Reshape", "StatefulPartitionedCall/model_1/tf.expand_dims_2/ExpandDims/dim"], "attr": {"T": {"type": "DT_FLOAT"}, "Tdim": {"type": "DT_INT32"}}}, {"name": "StatefulPartitionedCall/model_1/re_lu_2/Relu", "op": "_FusedConv2D", "input": ["StatefulPartitionedCall/model_1/tf.expand_dims_2/ExpandDims", "StatefulPartitionedCall/model_1/conv2d_2/Conv2D/ReadVariableOp", "StatefulPartitionedCall/model_1/conv2d_2/BiasAdd/ReadVariableOp"], "device": "/device:CPU:0", "attr": {"use_cudnn_on_gpu": {"b": true}, "num_args": {"i": "1"}, "strides": {"list": {"i": ["1", "1", "3", "1"]}}, "dilations": {"list": {"i": ["1", "1", "1", "1"]}}, "padding": {"s": "U0FNRQ=="}, "fused_ops": {"list": {"s": ["Qmlhc0FkZA==", "UmVsdQ=="]}}, "epsilon": {"f": 0.0}, "T": {"type": "DT_FLOAT"}, "data_format": {"s": "TkhXQw=="}, "explicit_paddings": {"list": {}}}}, {"name": "StatefulPartitionedCall/model_1/conv2d_3/BiasAdd", "op": "_FusedConv2D", "input": ["StatefulPartitionedCall/model_1/re_lu_2/Relu", "StatefulPartitionedCall/model_1/conv2d_3/Conv2D/ReadVariableOp", "StatefulPartitionedCall/model_1/conv2d_3/BiasAdd/ReadVariableOp"], "device": "/device:CPU:0", "attr": {"dilations": {"list": {"i": ["1", "1", "1", "1"]}}, "use_cudnn_on_gpu": {"b": true}, "T": {"type": "DT_FLOAT"}, "epsilon": {"f": 0.0}, "padding": {"s": "U0FNRQ=="}, "fused_ops": {"list": {"s": ["Qmlhc0FkZA=="]}}, "strides": {"list": {"i": ["1", "1", "1", "1"]}}, "num_args": {"i": "1"}, "data_format": {"s": "TkhXQw=="}, "explicit_paddings": {"list": {}}}}, {"name": "StatefulPartitionedCall/model_1/conv2d_3/Sigmoid", "op": "Sigmoid", "input": ["StatefulPartitionedCall/model_1/conv2d_3/BiasAdd"], "attr": {"T": {"type": "DT_FLOAT"}}}, {"name": "StatefulPartitionedCall/model_1/note/reshape_3/Shape", "op": "Shape", "input": ["StatefulPartitionedCall/model_1/conv2d_3/Sigmoid"], "attr": {"out_type": {"type": "DT_INT32"}, "T": {"type": "DT_FLOAT"}}}, {"name": "StatefulPartitionedCall/model_1/concat/concat", "op": "ConcatV2", "input": ["StatefulPartitionedCall/model_1/conv2d_3/Sigmoid", "StatefulPartitionedCall/model_1/re_lu_3/Relu", "StatefulPartitionedCall/model_1/concat/concat/axis"], "attr": {"Tidx": {"type": "DT_INT32"}, "N": {"i": "2"}, "T": {"type": "DT_FLOAT"}}}, {"name": "StatefulPartitionedCall/model_1/note/reshape_3/strided_slice", "op": "StridedSlice", "input": ["StatefulPartitionedCall/model_1/note/reshape_3/Shape", "StatefulPartitionedCall/model_1/note/reshape_3/strided_slice/stack", "StatefulPartitionedCall/model_1/note/reshape_3/strided_slice/stack_1", "StatefulPartitionedCall/model_1/note/reshape_3/strided_slice/stack_2"], "attr": {"new_axis_mask": {"i": "0"}, "shrink_axis_mask": {"i": "1"}, "begin_mask": {"i": "0"}, "ellipsis_mask": {"i": "0"}, "Index": {"type": "DT_INT32"}, "T": {"type": "DT_INT32"}, "end_mask": {"i": "0"}}}, {"name": "StatefulPartitionedCall/model_1/conv2d_5/BiasAdd", "op": "_FusedConv2D", "input": ["StatefulPartitionedCall/model_1/concat/concat", "StatefulPartitionedCall/model_1/conv2d_5/Conv2D/ReadVariableOp", "StatefulPartitionedCall/model_1/conv2d_5/BiasAdd/ReadVariableOp"], "device": "/device:CPU:0", "attr": {"epsilon": {"f": 0.0}, "num_args": {"i": "1"}, "explicit_paddings": {"list": {}}, "strides": {"list": {"i": ["1", "1", "1", "1"]}}, "dilations": {"list": {"i": ["1", "1", "1", "1"]}}, "use_cudnn_on_gpu": {"b": true}, "data_format": {"s": "TkhXQw=="}, "T": {"type": "DT_FLOAT"}, "padding": {"s": "U0FNRQ=="}, "fused_ops": {"list": {"s": ["Qmlhc0FkZA=="]}}}}, {"name": "StatefulPartitionedCall/model_1/note/reshape_3/Reshape/shape", "op": "Pack", "input": ["StatefulPartitionedCall/model_1/note/reshape_3/strided_slice", "StatefulPartitionedCall/model_1/note/reshape_3/Reshape/shape/1", "StatefulPartitionedCall/model_1/note/reshape_3/Reshape/shape/2"], "attr": {"T": {"type": "DT_INT32"}, "N": {"i": "3"}, "axis": {"i": "0"}}}, {"name": "StatefulPartitionedCall/model_1/conv2d_5/Sigmoid", "op": "Sigmoid", "input": ["StatefulPartitionedCall/model_1/conv2d_5/BiasAdd"], "attr": {"T": {"type": "DT_FLOAT"}}}, {"name": "StatefulPartitionedCall/model_1/note/reshape_3/Reshape", "op": "Reshape", "input": ["StatefulPartitionedCall/model_1/conv2d_3/Sigmoid", "StatefulPartitionedCall/model_1/note/reshape_3/Reshape/shape"], "attr": {"Tshape": {"type": "DT_INT32"}, "T": {"type": "DT_FLOAT"}}}, {"name": "StatefulPartitionedCall/model_1/onset/reshape_2/Shape", "op": "Shape", "input": ["StatefulPartitionedCall/model_1/conv2d_5/Sigmoid"], "attr": {"out_type": {"type": "DT_INT32"}, "T": {"type": "DT_FLOAT"}}}, {"name": "Identity_1", "op": "Identity", "input": ["StatefulPartitionedCall/model_1/note/reshape_3/Reshape"], "attr": {"T": {"type": "DT_FLOAT"}}}, {"name": "StatefulPartitionedCall/model_1/onset/reshape_2/strided_slice", "op": "StridedSlice", "input": ["StatefulPartitionedCall/model_1/onset/reshape_2/Shape", "StatefulPartitionedCall/model_1/onset/reshape_2/strided_slice/stack", "StatefulPartitionedCall/model_1/onset/reshape_2/strided_slice/stack_1", "StatefulPartitionedCall/model_1/onset/reshape_2/strided_slice/stack_2"], "attr": {"Index": {"type": "DT_INT32"}, "shrink_axis_mask": {"i": "1"}, "end_mask": {"i": "0"}, "ellipsis_mask": {"i": "0"}, "T": {"type": "DT_INT32"}, "begin_mask": {"i": "0"}, "new_axis_mask": {"i": "0"}}}, {"name": "StatefulPartitionedCall/model_1/onset/reshape_2/Reshape/shape", "op": "Pack", "input": ["StatefulPartitionedCall/model_1/onset/reshape_2/strided_slice", "StatefulPartitionedCall/model_1/onset/reshape_2/Reshape/shape/1", "StatefulPartitionedCall/model_1/onset/reshape_2/Reshape/shape/2"], "attr": {"N": {"i": "3"}, "T": {"type": "DT_INT32"}, "axis": {"i": "0"}}}, {"name": "StatefulPartitionedCall/model_1/onset/reshape_2/Reshape", "op": "Reshape", "input": ["StatefulPartitionedCall/model_1/conv2d_5/Sigmoid", "StatefulPartitionedCall/model_1/onset/reshape_2/Reshape/shape"], "attr": {"Tshape": {"type": "DT_INT32"}, "T": {"type": "DT_FLOAT"}}}, {"name": "Identity_2", "op": "Identity", "input": ["StatefulPartitionedCall/model_1/onset/reshape_2/Reshape"], "attr": {"T": {"type": "DT_FLOAT"}}}], "library": {}, "versions": {"producer": 561}}, "weightsManifest": [{"paths": ["group1-shard1of1.bin"], "weights": [{"name": "StatefulPartitionedCall/model_1/note/reshape_3/strided_slice/stack", "shape": [1], "dtype": "int32"}, {"name": "StatefulPartitionedCall/model_1/note/reshape_3/strided_slice/stack_1", "shape": [1], "dtype": "int32"}, {"name": "StatefulPartitionedCall/model_1/note/reshape_3/strided_slice/stack_2", "shape": [1], "dtype": "int32"}, {"name": "StatefulPartitionedCall/model_1/note/reshape_3/Reshape/shape/1", "shape": [], "dtype": "int32"}, {"name": "StatefulPartitionedCall/model_1/note/reshape_3/Reshape/shape/2", "shape": [], "dtype": "int32"}, {"name": "StatefulPartitionedCall/model_1/harmonic_stacking/strided_slice/stack", "shape": [4], "dtype": "int32"}, {"name": "StatefulPartitionedCall/model_1/harmonic_stacking/strided_slice/stack_1", "shape": [4], "dtype": "int32"}, {"name": "StatefulPartitionedCall/model_1/harmonic_stacking/strided_slice/stack_2", "shape": [4], "dtype": "int32"}, {"name": "StatefulPartitionedCall/model_1/harmonic_stacking/Const", "shape": [4, 2], "dtype": "int32"}, {"name": "StatefulPartitionedCall/model_1/harmonic_stacking/strided_slice_1/stack", "shape": [4], "dtype": "int32"}, {"name": "StatefulPartitionedCall/model_1/harmonic_stacking/strided_slice_1/stack_1", "shape": [4], "dtype": "int32"}, {"name": "StatefulPartitionedCall/model_1/harmonic_stacking/strided_slice_1/stack_2", "shape": [4], "dtype": "int32"}, {"name": "StatefulPartitionedCall/model_1/harmonic_stacking/Const_1", "shape": [4, 2], "dtype": "int32"}, {"name": "StatefulPartitionedCall/model_1/harmonic_stacking/strided_slice_2/stack", "shape": [4], "dtype": "int32"}, {"name": "StatefulPartitionedCall/model_1/harmonic_stacking/strided_slice_2/stack_1", "shape": [4], "dtype": "int32"}, {"name": "StatefulPartitionedCall/model_1/harmonic_stacking/strided_slice_2/stack_2", "shape": [4], "dtype": "int32"}, {"name": "StatefulPartitionedCall/model_1/harmonic_stacking/Const_2", "shape": [4, 2], "dtype": "int32"}, {"name": "StatefulPartitionedCall/model_1/harmonic_stacking/strided_slice_3/stack", "shape": [4], "dtype": "int32"}, {"name": "StatefulPartitionedCall/model_1/harmonic_stacking/strided_slice_3/stack_1", "shape": [4], "dtype": "int32"}, {"name": "StatefulPartitionedCall/model_1/harmonic_stacking/strided_slice_3/stack_2", "shape": [4], "dtype": "int32"}, {"name": "StatefulPartitionedCall/model_1/harmonic_stacking/Const_3", "shape": [4, 2], "dtype": "int32"}, {"name": "StatefulPartitionedCall/model_1/harmonic_stacking/strided_slice_4/stack", "shape": [4], "dtype": "int32"}, {"name": "StatefulPartitionedCall/model_1/harmonic_stacking/strided_slice_4/stack_1", "shape": [4], "dtype": "int32"}, {"name": "StatefulPartitionedCall/model_1/harmonic_stacking/strided_slice_4/stack_2", "shape": [4], "dtype": "int32"}, {"name": "StatefulPartitionedCall/model_1/harmonic_stacking/Const_4", "shape": [4, 2], "dtype": "int32"}, {"name": "StatefulPartitionedCall/model_1/harmonic_stacking/strided_slice_5/stack", "shape": [4], "dtype": "int32"}, {"name": "StatefulPartitionedCall/model_1/harmonic_stacking/strided_slice_5/stack_1", "shape": [4], "dtype": "int32"}, {"name": "StatefulPartitionedCall/model_1/harmonic_stacking/strided_slice_5/stack_2", "shape": [4], "dtype": "int32"}, {"name": "StatefulPartitionedCall/model_1/harmonic_stacking/Const_5", "shape": [4, 2], "dtype": "int32"}, {"name": "StatefulPartitionedCall/model_1/harmonic_stacking/strided_slice_6/stack", "shape": [4], "dtype": "int32"}, {"name": "StatefulPartitionedCall/model_1/harmonic_stacking/strided_slice_6/stack_1", "shape": [4], "dtype": "int32"}, {"name": "StatefulPartitionedCall/model_1/harmonic_stacking/strided_slice_6/stack_2", "shape": [4], "dtype": "int32"}, {"name": "StatefulPartitionedCall/model_1/harmonic_stacking/Const_6", "shape": [4, 2], "dtype": "int32"}, {"name": "StatefulPartitionedCall/model_1/harmonic_stacking/concat/axis", "shape": [], "dtype": "int32"}, {"name": "StatefulPartitionedCall/model_1/harmonic_stacking/strided_slice_7/stack", "shape": [4], "dtype": "int32"}, {"name": "StatefulPartitionedCall/model_1/harmonic_stacking/strided_slice_7/stack_1", "shape": [4], "dtype": "int32"}, {"name": "StatefulPartitionedCall/model_1/harmonic_stacking/strided_slice_7/stack_2", "shape": [4], "dtype": "int32"}, {"name": "StatefulPartitionedCall/model_1/contours-reduced/Conv2D/ReadVariableOp", "shape": [5, 5, 8, 1], "dtype": "float32"}, {"name": "StatefulPartitionedCall/model_1/contours-reduced/BiasAdd/ReadVariableOp", "shape": [1], "dtype": "float32"}, {"name": "StatefulPartitionedCall/model_1/contour/reshape_1/strided_slice/stack", "shape": [1], "dtype": "int32"}, {"name": "StatefulPartitionedCall/model_1/contour/reshape_1/strided_slice/stack_1", "shape": [1], "dtype": "int32"}, {"name": "StatefulPartitionedCall/model_1/contour/reshape_1/strided_slice/stack_2", "shape": [1], "dtype": "int32"}, {"name": "StatefulPartitionedCall/model_1/contour/reshape_1/Reshape/shape/1", "shape": [], "dtype": "int32"}, {"name": "StatefulPartitionedCall/model_1/contour/reshape_1/Reshape/shape/2", "shape": [], "dtype": "int32"}, {"name": "StatefulPartitionedCall/model_1/tf.expand_dims_2/ExpandDims/dim", "shape": [], "dtype": "int32"}, {"name": "StatefulPartitionedCall/model_1/conv2d_2/Conv2D/ReadVariableOp", "shape": [7, 7, 1, 32], "dtype": "float32"}, {"name": "StatefulPartitionedCall/model_1/conv2d_2/BiasAdd/ReadVariableOp", "shape": [32], "dtype": "float32"}, {"name": "StatefulPartitionedCall/model_1/conv2d_3/Conv2D/ReadVariableOp", "shape": [7, 3, 32, 1], "dtype": "float32"}, {"name": "StatefulPartitionedCall/model_1/conv2d_3/BiasAdd/ReadVariableOp", "shape": [1], "dtype": "float32"}, {"name": "StatefulPartitionedCall/model_1/harmonic-stacking-diff/strided_slice/stack", "shape": [4], "dtype": "int32"}, {"name": "StatefulPartitionedCall/model_1/harmonic-stacking-diff/strided_slice/stack_1", "shape": [4], "dtype": "int32"}, {"name": "StatefulPartitionedCall/model_1/harmonic-stacking-diff/strided_slice/stack_2", "shape": [4], "dtype": "int32"}, {"name": "StatefulPartitionedCall/model_1/harmonic-stacking-diff/Const", "shape": [4, 2], "dtype": "int32"}, {"name": "StatefulPartitionedCall/model_1/harmonic-stacking-diff/strided_slice_1/stack", "shape": [4], "dtype": "int32"}, {"name": "StatefulPartitionedCall/model_1/harmonic-stacking-diff/strided_slice_1/stack_1", "shape": [4], "dtype": "int32"}, {"name": "StatefulPartitionedCall/model_1/harmonic-stacking-diff/strided_slice_1/stack_2", "shape": [4], "dtype": "int32"}, {"name": "StatefulPartitionedCall/model_1/harmonic-stacking-diff/Const_1", "shape": [4, 2], "dtype": "int32"}, {"name": "StatefulPartitionedCall/model_1/harmonic-stacking-diff/strided_slice_2/stack", "shape": [4], "dtype": "int32"}, {"name": "StatefulPartitionedCall/model_1/harmonic-stacking-diff/strided_slice_2/stack_1", "shape": [4], "dtype": "int32"}, {"name": "StatefulPartitionedCall/model_1/harmonic-stacking-diff/strided_slice_2/stack_2", "shape": [4], "dtype": "int32"}, {"name": "StatefulPartitionedCall/model_1/harmonic-stacking-diff/Const_2", "shape": [4, 2], "dtype": "int32"}, {"name": "StatefulPartitionedCall/model_1/harmonic-stacking-diff/strided_slice_3/stack", "shape": [4], "dtype": "int32"}, {"name": "StatefulPartitionedCall/model_1/harmonic-stacking-diff/strided_slice_3/stack_1", "shape": [4], "dtype": "int32"}, {"name": "StatefulPartitionedCall/model_1/harmonic-stacking-diff/strided_slice_3/stack_2", "shape": [4], "dtype": "int32"}, {"name": "StatefulPartitionedCall/model_1/harmonic-stacking-diff/Const_3", "shape": [4, 2], "dtype": "int32"}, {"name": "StatefulPartitionedCall/model_1/harmonic-stacking-diff/strided_slice_4/stack", "shape": [4], "dtype": "int32"}, {"name": "StatefulPartitionedCall/model_1/harmonic-stacking-diff/strided_slice_4/stack_1", "shape": [4], "dtype": "int32"}, {"name": "StatefulPartitionedCall/model_1/harmonic-stacking-diff/strided_slice_4/stack_2", "shape": [4], "dtype": "int32"}, {"name": "StatefulPartitionedCall/model_1/harmonic-stacking-diff/Const_4", "shape": [4, 2], "dtype": "int32"}, {"name": "StatefulPartitionedCall/model_1/harmonic-stacking-diff/strided_slice_5/stack", "shape": [4], "dtype": "int32"}, {"name": "StatefulPartitionedCall/model_1/harmonic-stacking-diff/strided_slice_5/stack_1", "shape": [4], "dtype": "int32"}, {"name": "StatefulPartitionedCall/model_1/harmonic-stacking-diff/strided_slice_5/stack_2", "shape": [4], "dtype": "int32"}, {"name": "StatefulPartitionedCall/model_1/harmonic-stacking-diff/Const_5", "shape": [4, 2], "dtype": "int32"}, {"name": "StatefulPartitionedCall/model_1/normalized_log_1/add/y", "shape": [], "dtype": "float32"}, {"name": "StatefulPartitionedCall/model_1/normalized_log_1/truediv", "shape": [], "dtype": "float32"}, {"name": "StatefulPartitionedCall/model_1/normalized_log_1/Min/reduction_indices", "shape": [2], "dtype": "int32"}, {"name": "StatefulPartitionedCall/model_1/normalized_log_1/strided_slice/stack", "shape": [1], "dtype": "int32"}, {"name": "StatefulPartitionedCall/model_1/normalized_log_1/strided_slice/stack_1", "shape": [1], "dtype": "int32"}, {"name": "StatefulPartitionedCall/model_1/normalized_log_1/strided_slice/stack_2", "shape": [1], "dtype": "int32"}, {"name": "StatefulPartitionedCall/model_1/normalized_log_1/Reshape/shape/1", "shape": [], "dtype": "int32"}, {"name": "StatefulPartitionedCall/model_1/normalized_log_1/Reshape/shape/2", "shape": [], "dtype": "int32"}, {"name": "StatefulPartitionedCall/model_1/normalized_log_1/Max/reduction_indices", "shape": [2], "dtype": "int32"}, {"name": "StatefulPartitionedCall/model_1/cq_t2010v2_1/transpose_64/perm", "shape": [3], "dtype": "int32"}, {"name": "StatefulPartitionedCall/model_1/cq_t2010v2_1/conv1d_24/ExpandDims/dim", "shape": [], "dtype": "int32"}, {"name": "StatefulPartitionedCall/model_1/cq_t2010v2_1/conv1d_24/ExpandDims_1", "shape": [1, 256, 1, 36], "dtype": "float32"}, {"name": "StatefulPartitionedCall/model_1/cq_t2010v2_1/transpose_66/perm", "shape": [3], "dtype": "int32"}, {"name": "StatefulPartitionedCall/model_1/cq_t2010v2_1/Pad_7/paddings", "shape": [3, 2], "dtype": "int32"}, {"name": "StatefulPartitionedCall/model_1/cq_t2010v2_1/transpose_62/perm", "shape": [3], "dtype": "int32"}, {"name": "StatefulPartitionedCall/model_1/cq_t2010v2_1/conv1d_23/ExpandDims/dim", "shape": [], "dtype": "int32"}, {"name": "StatefulPartitionedCall/model_1/cq_t2010v2_1/conv1d_23/ExpandDims_1", "shape": [1, 256, 1, 1], "dtype": "float32"}, {"name": "StatefulPartitionedCall/model_1/cq_t2010v2_1/transpose_63/perm", "shape": [3], "dtype": "int32"}, {"name": "StatefulPartitionedCall/model_1/cq_t2010v2_1/reflection_pad1d/MirrorPad_8/paddings", "shape": [3, 2], "dtype": "int32"}, {"name": "StatefulPartitionedCall/model_1/cq_t2010v2_1/transpose_67/perm", "shape": [3], "dtype": "int32"}, {"name": "StatefulPartitionedCall/model_1/cq_t2010v2_1/conv1d_25/ExpandDims/dim", "shape": [], "dtype": "int32"}, {"name": "StatefulPartitionedCall/model_1/cq_t2010v2_1/conv1d_25/ExpandDims_1", "shape": [1, 256, 1, 36], "dtype": "float32"}, {"name": "StatefulPartitionedCall/model_1/cq_t2010v2_1/transpose_69/perm", "shape": [3], "dtype": "int32"}, {"name": "StatefulPartitionedCall/model_1/cq_t2010v2_1/transpose_56/perm", "shape": [3], "dtype": "int32"}, {"name": "StatefulPartitionedCall/model_1/cq_t2010v2_1/conv1d_21/ExpandDims/dim", "shape": [], "dtype": "int32"}, {"name": "StatefulPartitionedCall/model_1/cq_t2010v2_1/conv1d_21/ExpandDims_1", "shape": [1, 256, 1, 36], "dtype": "float32"}, {"name": "StatefulPartitionedCall/model_1/cq_t2010v2_1/transpose_58/perm", "shape": [3], "dtype": "int32"}, {"name": "StatefulPartitionedCall/model_1/cq_t2010v2_1/Pad_6/paddings", "shape": [3, 2], "dtype": "int32"}, {"name": "StatefulPartitionedCall/model_1/cq_t2010v2_1/transpose_54/perm", "shape": [3], "dtype": "int32"}, {"name": "StatefulPartitionedCall/model_1/cq_t2010v2_1/conv1d_20/ExpandDims/dim", "shape": [], "dtype": "int32"}, {"name": "StatefulPartitionedCall/model_1/cq_t2010v2_1/conv1d_20/ExpandDims_1", "shape": [1, 256, 1, 1], "dtype": "float32"}, {"name": "StatefulPartitionedCall/model_1/cq_t2010v2_1/transpose_55/perm", "shape": [3], "dtype": "int32"}, {"name": "StatefulPartitionedCall/model_1/cq_t2010v2_1/reflection_pad1d/MirrorPad_7/paddings", "shape": [3, 2], "dtype": "int32"}, {"name": "StatefulPartitionedCall/model_1/cq_t2010v2_1/transpose_59/perm", "shape": [3], "dtype": "int32"}, {"name": "StatefulPartitionedCall/model_1/cq_t2010v2_1/conv1d_22/ExpandDims/dim", "shape": [], "dtype": "int32"}, {"name": "StatefulPartitionedCall/model_1/cq_t2010v2_1/conv1d_22/ExpandDims_1", "shape": [1, 256, 1, 36], "dtype": "float32"}, {"name": "StatefulPartitionedCall/model_1/cq_t2010v2_1/transpose_61/perm", "shape": [3], "dtype": "int32"}, {"name": "StatefulPartitionedCall/model_1/cq_t2010v2_1/transpose_48/perm", "shape": [3], "dtype": "int32"}, {"name": "StatefulPartitionedCall/model_1/cq_t2010v2_1/conv1d_18/ExpandDims/dim", "shape": [], "dtype": "int32"}, {"name": "StatefulPartitionedCall/model_1/cq_t2010v2_1/conv1d_18/ExpandDims_1", "shape": [1, 256, 1, 36], "dtype": "float32"}, {"name": "StatefulPartitionedCall/model_1/cq_t2010v2_1/transpose_50/perm", "shape": [3], "dtype": "int32"}, {"name": "StatefulPartitionedCall/model_1/cq_t2010v2_1/Pad_5/paddings", "shape": [3, 2], "dtype": "int32"}, {"name": "StatefulPartitionedCall/model_1/cq_t2010v2_1/transpose_46/perm", "shape": [3], "dtype": "int32"}, {"name": "StatefulPartitionedCall/model_1/cq_t2010v2_1/conv1d_17/ExpandDims/dim", "shape": [], "dtype": "int32"}, {"name": "StatefulPartitionedCall/model_1/cq_t2010v2_1/conv1d_17/ExpandDims_1", "shape": [1, 256, 1, 1], "dtype": "float32"}, {"name": "StatefulPartitionedCall/model_1/cq_t2010v2_1/transpose_47/perm", "shape": [3], "dtype": "int32"}, {"name": "StatefulPartitionedCall/model_1/cq_t2010v2_1/reflection_pad1d/MirrorPad_6/paddings", "shape": [3, 2], "dtype": "int32"}, {"name": "StatefulPartitionedCall/model_1/cq_t2010v2_1/transpose_51/perm", "shape": [3], "dtype": "int32"}, {"name": "StatefulPartitionedCall/model_1/cq_t2010v2_1/conv1d_19/ExpandDims/dim", "shape": [], "dtype": "int32"}, {"name": "StatefulPartitionedCall/model_1/cq_t2010v2_1/conv1d_19/ExpandDims_1", "shape": [1, 256, 1, 36], "dtype": "float32"}, {"name": "StatefulPartitionedCall/model_1/cq_t2010v2_1/transpose_53/perm", "shape": [3], "dtype": "int32"}, {"name": "StatefulPartitionedCall/model_1/cq_t2010v2_1/transpose_40/perm", "shape": [3], "dtype": "int32"}, {"name": "StatefulPartitionedCall/model_1/cq_t2010v2_1/conv1d_15/ExpandDims/dim", "shape": [], "dtype": "int32"}, {"name": "StatefulPartitionedCall/model_1/cq_t2010v2_1/conv1d_15/ExpandDims_1", "shape": [1, 256, 1, 36], "dtype": "float32"}, {"name": "StatefulPartitionedCall/model_1/cq_t2010v2_1/transpose_42/perm", "shape": [3], "dtype": "int32"}, {"name": "StatefulPartitionedCall/model_1/cq_t2010v2_1/Pad_4/paddings", "shape": [3, 2], "dtype": "int32"}, {"name": "StatefulPartitionedCall/model_1/cq_t2010v2_1/transpose_38/perm", "shape": [3], "dtype": "int32"}, {"name": "StatefulPartitionedCall/model_1/cq_t2010v2_1/conv1d_14/ExpandDims/dim", "shape": [], "dtype": "int32"}, {"name": "StatefulPartitionedCall/model_1/cq_t2010v2_1/conv1d_14/ExpandDims_1", "shape": [1, 256, 1, 1], "dtype": "float32"}, {"name": "StatefulPartitionedCall/model_1/cq_t2010v2_1/transpose_39/perm", "shape": [3], "dtype": "int32"}, {"name": "StatefulPartitionedCall/model_1/cq_t2010v2_1/reflection_pad1d/MirrorPad_5/paddings", "shape": [3, 2], "dtype": "int32"}, {"name": "StatefulPartitionedCall/model_1/cq_t2010v2_1/transpose_43/perm", "shape": [3], "dtype": "int32"}, {"name": "StatefulPartitionedCall/model_1/cq_t2010v2_1/conv1d_16/ExpandDims/dim", "shape": [], "dtype": "int32"}, {"name": "StatefulPartitionedCall/model_1/cq_t2010v2_1/conv1d_16/ExpandDims_1", "shape": [1, 256, 1, 36], "dtype": "float32"}, {"name": "StatefulPartitionedCall/model_1/cq_t2010v2_1/transpose_45/perm", "shape": [3], "dtype": "int32"}, {"name": "StatefulPartitionedCall/model_1/cq_t2010v2_1/transpose_32/perm", "shape": [3], "dtype": "int32"}, {"name": "StatefulPartitionedCall/model_1/cq_t2010v2_1/conv1d_12/ExpandDims/dim", "shape": [], "dtype": "int32"}, {"name": "StatefulPartitionedCall/model_1/cq_t2010v2_1/conv1d_12/ExpandDims_1", "shape": [1, 256, 1, 36], "dtype": "float32"}, {"name": "StatefulPartitionedCall/model_1/cq_t2010v2_1/transpose_34/perm", "shape": [3], "dtype": "int32"}, {"name": "StatefulPartitionedCall/model_1/cq_t2010v2_1/Pad_3/paddings", "shape": [3, 2], "dtype": "int32"}, {"name": "StatefulPartitionedCall/model_1/cq_t2010v2_1/transpose_30/perm", "shape": [3], "dtype": "int32"}, {"name": "StatefulPartitionedCall/model_1/cq_t2010v2_1/conv1d_11/ExpandDims/dim", "shape": [], "dtype": "int32"}, {"name": "StatefulPartitionedCall/model_1/cq_t2010v2_1/conv1d_11/ExpandDims_1", "shape": [1, 256, 1, 1], "dtype": "float32"}, {"name": "StatefulPartitionedCall/model_1/cq_t2010v2_1/transpose_31/perm", "shape": [3], "dtype": "int32"}, {"name": "StatefulPartitionedCall/model_1/cq_t2010v2_1/reflection_pad1d/MirrorPad_4/paddings", "shape": [3, 2], "dtype": "int32"}, {"name": "StatefulPartitionedCall/model_1/cq_t2010v2_1/transpose_35/perm", "shape": [3], "dtype": "int32"}, {"name": "StatefulPartitionedCall/model_1/cq_t2010v2_1/conv1d_13/ExpandDims/dim", "shape": [], "dtype": "int32"}, {"name": "StatefulPartitionedCall/model_1/cq_t2010v2_1/conv1d_13/ExpandDims_1", "shape": [1, 256, 1, 36], "dtype": "float32"}, {"name": "StatefulPartitionedCall/model_1/cq_t2010v2_1/transpose_37/perm", "shape": [3], "dtype": "int32"}, {"name": "StatefulPartitionedCall/model_1/cq_t2010v2_1/transpose_24/perm", "shape": [3], "dtype": "int32"}, {"name": "StatefulPartitionedCall/model_1/cq_t2010v2_1/conv1d_9/ExpandDims/dim", "shape": [], "dtype": "int32"}, {"name": "StatefulPartitionedCall/model_1/cq_t2010v2_1/conv1d_9/ExpandDims_1", "shape": [1, 256, 1, 36], "dtype": "float32"}, {"name": "StatefulPartitionedCall/model_1/cq_t2010v2_1/transpose_26/perm", "shape": [3], "dtype": "int32"}, {"name": "StatefulPartitionedCall/model_1/cq_t2010v2_1/Pad_2/paddings", "shape": [3, 2], "dtype": "int32"}, {"name": "StatefulPartitionedCall/model_1/cq_t2010v2_1/transpose_22/perm", "shape": [3], "dtype": "int32"}, {"name": "StatefulPartitionedCall/model_1/cq_t2010v2_1/conv1d_8/ExpandDims/dim", "shape": [], "dtype": "int32"}, {"name": "StatefulPartitionedCall/model_1/cq_t2010v2_1/conv1d_8/ExpandDims_1", "shape": [1, 256, 1, 1], "dtype": "float32"}, {"name": "StatefulPartitionedCall/model_1/cq_t2010v2_1/transpose_23/perm", "shape": [3], "dtype": "int32"}, {"name": "StatefulPartitionedCall/model_1/cq_t2010v2_1/reflection_pad1d/MirrorPad_3/paddings", "shape": [3, 2], "dtype": "int32"}, {"name": "StatefulPartitionedCall/model_1/cq_t2010v2_1/transpose_27/perm", "shape": [3], "dtype": "int32"}, {"name": "StatefulPartitionedCall/model_1/cq_t2010v2_1/conv1d_10/ExpandDims/dim", "shape": [], "dtype": "int32"}, {"name": "StatefulPartitionedCall/model_1/cq_t2010v2_1/conv1d_10/ExpandDims_1", "shape": [1, 256, 1, 36], "dtype": "float32"}, {"name": "StatefulPartitionedCall/model_1/cq_t2010v2_1/transpose_29/perm", "shape": [3], "dtype": "int32"}, {"name": "StatefulPartitionedCall/model_1/cq_t2010v2_1/transpose_16/perm", "shape": [3], "dtype": "int32"}, {"name": "StatefulPartitionedCall/model_1/cq_t2010v2_1/conv1d_6/ExpandDims/dim", "shape": [], "dtype": "int32"}, {"name": "StatefulPartitionedCall/model_1/cq_t2010v2_1/conv1d_6/ExpandDims_1", "shape": [1, 256, 1, 36], "dtype": "float32"}, {"name": "StatefulPartitionedCall/model_1/cq_t2010v2_1/transpose_18/perm", "shape": [3], "dtype": "int32"}, {"name": "StatefulPartitionedCall/model_1/cq_t2010v2_1/Pad_1/paddings", "shape": [3, 2], "dtype": "int32"}, {"name": "StatefulPartitionedCall/model_1/cq_t2010v2_1/transpose_14/perm", "shape": [3], "dtype": "int32"}, {"name": "StatefulPartitionedCall/model_1/cq_t2010v2_1/conv1d_5/ExpandDims/dim", "shape": [], "dtype": "int32"}, {"name": "StatefulPartitionedCall/model_1/cq_t2010v2_1/conv1d_5/ExpandDims_1", "shape": [1, 256, 1, 1], "dtype": "float32"}, {"name": "StatefulPartitionedCall/model_1/cq_t2010v2_1/transpose_15/perm", "shape": [3], "dtype": "int32"}, {"name": "StatefulPartitionedCall/model_1/cq_t2010v2_1/reflection_pad1d/MirrorPad_2/paddings", "shape": [3, 2], "dtype": "int32"}, {"name": "StatefulPartitionedCall/model_1/cq_t2010v2_1/transpose_19/perm", "shape": [3], "dtype": "int32"}, {"name": "StatefulPartitionedCall/model_1/cq_t2010v2_1/conv1d_7/ExpandDims/dim", "shape": [], "dtype": "int32"}, {"name": "StatefulPartitionedCall/model_1/cq_t2010v2_1/conv1d_7/ExpandDims_1", "shape": [1, 256, 1, 36], "dtype": "float32"}, {"name": "StatefulPartitionedCall/model_1/cq_t2010v2_1/transpose_21/perm", "shape": [3], "dtype": "int32"}, {"name": "StatefulPartitionedCall/model_1/cq_t2010v2_1/transpose_8/perm", "shape": [3], "dtype": "int32"}, {"name": "StatefulPartitionedCall/model_1/cq_t2010v2_1/conv1d_3/ExpandDims/dim", "shape": [], "dtype": "int32"}, {"name": "StatefulPartitionedCall/model_1/cq_t2010v2_1/conv1d_3/ExpandDims_1", "shape": [1, 256, 1, 36], "dtype": "float32"}, {"name": "StatefulPartitionedCall/model_1/cq_t2010v2_1/transpose_10/perm", "shape": [3], "dtype": "int32"}, {"name": "StatefulPartitionedCall/model_1/cq_t2010v2_1/Pad/paddings", "shape": [3, 2], "dtype": "int32"}, {"name": "StatefulPartitionedCall/model_1/cq_t2010v2_1/transpose_6/perm", "shape": [3], "dtype": "int32"}, {"name": "StatefulPartitionedCall/model_1/cq_t2010v2_1/conv1d_2/ExpandDims/dim", "shape": [], "dtype": "int32"}, {"name": "StatefulPartitionedCall/model_1/cq_t2010v2_1/conv1d_2/ExpandDims_1", "shape": [1, 256, 1, 1], "dtype": "float32"}, {"name": "StatefulPartitionedCall/model_1/cq_t2010v2_1/transpose_7/perm", "shape": [3], "dtype": "int32"}, {"name": "StatefulPartitionedCall/model_1/cq_t2010v2_1/reflection_pad1d/MirrorPad_1/paddings", "shape": [3, 2], "dtype": "int32"}, {"name": "StatefulPartitionedCall/model_1/cq_t2010v2_1/transpose_11/perm", "shape": [3], "dtype": "int32"}, {"name": "StatefulPartitionedCall/model_1/cq_t2010v2_1/conv1d_4/ExpandDims/dim", "shape": [], "dtype": "int32"}, {"name": "StatefulPartitionedCall/model_1/cq_t2010v2_1/conv1d_4/ExpandDims_1", "shape": [1, 256, 1, 36], "dtype": "float32"}, {"name": "StatefulPartitionedCall/model_1/cq_t2010v2_1/transpose_13/perm", "shape": [3], "dtype": "int32"}, {"name": "StatefulPartitionedCall/model_1/cq_t2010v2_1/transpose/perm", "shape": [3], "dtype": "int32"}, {"name": "StatefulPartitionedCall/model_1/cq_t2010v2_1/conv1d/ExpandDims/dim", "shape": [], "dtype": "int32"}, {"name": "StatefulPartitionedCall/model_1/cq_t2010v2_1/conv1d/ExpandDims_1", "shape": [1, 256, 1, 36], "dtype": "float32"}, {"name": "StatefulPartitionedCall/model_1/cq_t2010v2_1/transpose_2/perm", "shape": [3], "dtype": "int32"}, {"name": "StatefulPartitionedCall/model_1/flatten_audio_ch_1/reshape/strided_slice/stack", "shape": [1], "dtype": "int32"}, {"name": "StatefulPartitionedCall/model_1/flatten_audio_ch_1/reshape/strided_slice/stack_1", "shape": [1], "dtype": "int32"}, {"name": "StatefulPartitionedCall/model_1/flatten_audio_ch_1/reshape/strided_slice/stack_2", "shape": [1], "dtype": "int32"}, {"name": "StatefulPartitionedCall/model_1/flatten_audio_ch_1/reshape/Reshape/shape/1", "shape": [], "dtype": "int32"}, {"name": "StatefulPartitionedCall/model_1/cq_t2010v2_1/strided_slice/stack", "shape": [3], "dtype": "int32"}, {"name": "StatefulPartitionedCall/model_1/cq_t2010v2_1/strided_slice/stack_1", "shape": [3], "dtype": "int32"}, {"name": "StatefulPartitionedCall/model_1/cq_t2010v2_1/strided_slice/stack_2", "shape": [3], "dtype": "int32"}, {"name": "StatefulPartitionedCall/model_1/cq_t2010v2_1/reflection_pad1d/MirrorPad/paddings", "shape": [3, 2], "dtype": "int32"}, {"name": "StatefulPartitionedCall/model_1/cq_t2010v2_1/transpose_3/perm", "shape": [3], "dtype": "int32"}, {"name": "StatefulPartitionedCall/model_1/cq_t2010v2_1/conv1d_1/ExpandDims/dim", "shape": [], "dtype": "int32"}, {"name": "StatefulPartitionedCall/model_1/cq_t2010v2_1/conv1d_1/ExpandDims_1", "shape": [1, 256, 1, 36], "dtype": "float32"}, {"name": "StatefulPartitionedCall/model_1/cq_t2010v2_1/transpose_5/perm", "shape": [3], "dtype": "int32"}, {"name": "StatefulPartitionedCall/model_1/cq_t2010v2_1/concat_7/axis", "shape": [], "dtype": "int32"}, {"name": "StatefulPartitionedCall/model_1/cq_t2010v2_1/strided_slice_9/stack", "shape": [3], "dtype": "int32"}, {"name": "StatefulPartitionedCall/model_1/cq_t2010v2_1/strided_slice_9/stack_1", "shape": [3], "dtype": "int32"}, {"name": "StatefulPartitionedCall/model_1/cq_t2010v2_1/strided_slice_9/stack_2", "shape": [3], "dtype": "int32"}, {"name": "StatefulPartitionedCall/model_1/cq_t2010v2_1/Sqrt", "shape": [309, 1, 1], "dtype": "float32"}, {"name": "StatefulPartitionedCall/model_1/cq_t2010v2_1/Sum/reduction_indices", "shape": [], "dtype": "int32"}, {"name": "StatefulPartitionedCall/model_1/cq_t2010v2_1/transpose_70/perm", "shape": [3], "dtype": "int32"}, {"name": "StatefulPartitionedCall/model_1/normalized_log_1/strided_slice_1/stack", "shape": [1], "dtype": "int32"}, {"name": "StatefulPartitionedCall/model_1/normalized_log_1/strided_slice_1/stack_1", "shape": [1], "dtype": "int32"}, {"name": "StatefulPartitionedCall/model_1/normalized_log_1/strided_slice_1/stack_2", "shape": [1], "dtype": "int32"}, {"name": "StatefulPartitionedCall/model_1/normalized_log_1/Reshape_1/shape/1", "shape": [], "dtype": "int32"}, {"name": "StatefulPartitionedCall/model_1/normalized_log_1/Reshape_1/shape/2", "shape": [], "dtype": "int32"}, {"name": "StatefulPartitionedCall/model_1/tf.expand_dims_1/ExpandDims/dim", "shape": [], "dtype": "int32"}, {"name": "StatefulPartitionedCall/model_1/harmonic-stacking-diff/strided_slice_6/stack", "shape": [4], "dtype": "int32"}, {"name": "StatefulPartitionedCall/model_1/harmonic-stacking-diff/strided_slice_6/stack_1", "shape": [4], "dtype": "int32"}, {"name": "StatefulPartitionedCall/model_1/harmonic-stacking-diff/strided_slice_6/stack_2", "shape": [4], "dtype": "int32"}, {"name": "StatefulPartitionedCall/model_1/harmonic-stacking-diff/Const_6", "shape": [4, 2], "dtype": "int32"}, {"name": "StatefulPartitionedCall/model_1/harmonic-stacking-diff/concat/axis", "shape": [], "dtype": "int32"}, {"name": "StatefulPartitionedCall/model_1/harmonic-stacking-diff/strided_slice_7/stack", "shape": [4], "dtype": "int32"}, {"name": "StatefulPartitionedCall/model_1/harmonic-stacking-diff/strided_slice_7/stack_1", "shape": [4], "dtype": "int32"}, {"name": "StatefulPartitionedCall/model_1/harmonic-stacking-diff/strided_slice_7/stack_2", "shape": [4], "dtype": "int32"}, {"name": "StatefulPartitionedCall/model_1/concat/concat/axis", "shape": [], "dtype": "int32"}, {"name": "StatefulPartitionedCall/model_1/conv2d_5/Conv2D/ReadVariableOp", "shape": [3, 3, 33, 1], "dtype": "float32"}, {"name": "StatefulPartitionedCall/model_1/conv2d_5/BiasAdd/ReadVariableOp", "shape": [1], "dtype": "float32"}, {"name": "StatefulPartitionedCall/model_1/onset/reshape_2/strided_slice/stack", "shape": [1], "dtype": "int32"}, {"name": "StatefulPartitionedCall/model_1/onset/reshape_2/strided_slice/stack_1", "shape": [1], "dtype": "int32"}, {"name": "StatefulPartitionedCall/model_1/onset/reshape_2/strided_slice/stack_2", "shape": [1], "dtype": "int32"}, {"name": "StatefulPartitionedCall/model_1/onset/reshape_2/Reshape/shape/1", "shape": [], "dtype": "int32"}, {"name": "StatefulPartitionedCall/model_1/onset/reshape_2/Reshape/shape/2", "shape": [], "dtype": "int32"}, {"name": "StatefulPartitionedCall/model_1/conv2d_1/Conv2D_weights", "shape": [3, 39, 8, 8], "dtype": "float32"}, {"name": "StatefulPartitionedCall/model_1/conv2d_1/Conv2D_bn_offset", "shape": [8], "dtype": "float32"}, {"name": "StatefulPartitionedCall/model_1/batch_normalization/FusedBatchNormV3/Scaled", "shape": [1], "dtype": "float32"}, {"name": "StatefulPartitionedCall/model_1/conv2d_4/Conv2D_weights", "shape": [5, 5, 8, 32], "dtype": "float32"}, {"name": "StatefulPartitionedCall/model_1/conv2d_4/Conv2D_bn_offset", "shape": [32], "dtype": "float32"}, {"name": "StatefulPartitionedCall/model_1/batch_normalization/FusedBatchNormV3/Offset", "shape": [1], "dtype": "float32"}]}]}